best_policy.model (torch, 422383 bytes, 15 tensors)

conv1.weight f4 [32, 4, 3, 3]
0.08717953 -0.14300437 -0.003533816 0.07021944 -0.4695232 -0.07161783 -0.22386998 0.021242991
0.9047741 1.3414887 0.24987313 0.3680159 -0.30407888 0.38071918 0.20778516 0.036559615
0.010734755 -0.39493838 0.101728715 0.026956793 0.24847841 0.08822874 0.1897913 0.60915315
0.7845654 0.25164026 0.059966225 -0.16972972 -0.07793927 -0.2765724 -0.170996 0.7637356
0.1038715 0.1000134 -0.023541119 0.1781681 0.62401164 -0.3364819 -0.015494682 0.022835627
0.48065484 0.04620809 0.3926061 0.011774854 -0.19739008 -0.118753515 -0.050226256 0.046203993
-0.13880517 0.35643998 -0.026531769 0.16197716 0.08817204 0.88780165 0.06857652 -0.055863045
-0.070572786 0.10091646 -0.1306648 0.35576007 0.3041443 -0.14673422 0.14267118 0.6922289
0.77802706 0.3050458 0.43355307 -0.36219355 0.3402476 0.9428726 0.24656671 0.23731999
0.09388941 0.10911242 0.26085103 -0.0046888376 0.21218176 0.025277192 0.08451167 -0.056586258
1.7936909 -0.22468261 -0.29206315 0.020912673 -0.03811823 -0.39600354 -0.2921994 -0.07903653
-0.48944727 -0.31262898 0.23493004 0.42475486 0.13564979 0.20024164 0.5006263 0.46045896
0.31591418 0.49274626 0.5038519 0.29565644 0.15253076 0.21915373 0.1626735 -0.019376723
0.17336912 0.2229834 0.22376354 0.51577747 -0.061470315 -0.09646233 0.10993476 -0.007992925
0.46335164 -0.03116027 -0.07874271 -0.0039192764 -0.06478713 2.0258238 0.17034298 0.7111246
0.50737756 1.0510093 -0.005083258 0.8710239 0.48462388 0.2932356 -0.51046765 -0.30690283
-0.5281352 -0.37338164 -0.6099484 -0.27324557 -0.49150267 -0.38560626 -0.52025884 -0.031653676
0.18591566 -0.02189458 0.094587915 0.38813674 0.18640596 -0.01136399 0.112094335 -0.08908061
0.4275345 -0.14576855 -0.09731202 -0.23249432 0.27414283 -0.32089013 0.10563666 -0.119187675
0.50743824 0.011416852 0.026533669 -0.040977996 0.070918456 -0.048990678 0.028294928 -0.15932082
-0.104116574 -0.0641522 -0.58785 -0.67771554 -0.62481683 -0.0040865275 -0.3964617 -0.5978804
-0.78004205 -0.47503814 -0.6724758 0.14420858 0.1232907 0.13693456 0.30456072 0.5742811
0.11981173 0.04044168 0.27863944 0.5915487 -0.085972644 0.06592092 0.05220047 -0.09437621
-0.46856585 -0.1814018 0.22786169 -0.027599528 0.006372656 -0.048699822 -0.14884102 -0.058591615
0.07299749 -0.26569116 0.077665165 -0.0787336 -0.014600925 -0.050946172 0.066479005 -0.09773537
-0.14202492 -0.1246251 -0.3134927 0.09383263 -0.096146114 0.06998723 -0.026278136 -0.7974442
-0.82353145 -0.72131854 -0.9092172 -0.48625532 -0.8455873 -0.71366477 -0.9036248 -0.8146983
0.114571825 0.34720117 0.25500295 0.24167979 0.32478604 0.115609586 1.0205085 0.084080786
0.38443527 0.2971804 0.5339616 1.6852578 0.0794977 0.42063874 0.105104804 0.19255865
-0.047812574 0.04667285 -0.31171408 -0.035139773 -0.09513787 0.10982112 -0.085620694 0.05210314
-0.20110083 -0.044173334 -0.09671686 -0.17247877 0.28791925 -0.012866141 0.23325334 0.10754327
0.07264443 -0.025536612 -0.10209641 0.058281105 0.007388504 0.1781834 0.08228345 0.09585918
00000000: 2e8b b23d bd6f 12be 9897 67bb 36cf 8f3d
00000010: 5865 f0be 5eac 92bd 2c3e 65be c805 ae3c
00000020: 479f 673f e7b5 ab3f bede 7f3e 946c bc3e
00000030: 3ab0 9bbe a0ed c23e a2c5 543e 89bf 153d
00000040: d3e0 2f3c 5d35 cabe 2557 d03d 7ed4 dc3c
00000050: 2071 7e3e 45b1 b43d a758 423e 76f1 1b3f
00000060: 47d9 483f fed6 803e 259f 753d a1cd 2dbe
00000070: a09e 9fbd e69a 8dbe 9319 2fbe 2d84 433f
00000080: 95ba d43d d3d3 cc3d 4ed9 c0bc b371 363e
00000090: 3abf 1f3f 5b47 acbe 68dd 7dbc c811 bb3c
000000a0: 6418 f63e b244 3d3d ab03 c93e 51eb 403c
000000b0: a020 4abe 0b35 f3bd 0cba 4dbd 6640 3d3d
000000c0: f122 0ebe 4d7f b63e 2759 d9bc 57dd 253e
000000d0: 8b93 b43d f846 633f d971 8c3d a6d0 64bd
000000e0: 7788 90bd 4aad ce3d fecc 05be 2f26 b63e
000000f0: cdb8 9b3e 7f41 16be 6518 123e ea35 313f
00000100: c82c 473f f72e 9c3e abfa dd3e 6f71 b9be
00000110: ef34 ae3e 1960 713f fc7b 7c3e 0304 733e
00000120: 1749 c03d 5576 df3d 448e 853e d2a4 99bb
00000130: 2d46 593e 1d12 cf3c 7414 ad3d fec6 67bd
00000140: aa97 e53f 3313 66be 4d89 95be 0e51 ab3c
00000150: dc21 1cbd fac0 cabe 299b 95be e7dd a1bd
00000160: d598 fabe e810 a0be 8091 703e 7879 d93e
00000170: c7e7 0a3e 250c 4d3e 0c29 003f 47c1 eb3e
00000180: 81bf a13e 3d49 fc3e 70fc 003f 4860 973e
00000190: 0631 1c3e d669 603e e293 263e efbb 9ebc
000001a0: ad87 313e c355 643e 4522 653e fe09 043f
000001b0: 4cc8 7bbd 0b8e c5bd 7a25 e13d c2f4 02bc
000001c0: 6d3c ed3e d343 ffbc dc43 a1bd 466d 80bb
000001d0: 1daf 84bd 19a7 0140 646e 2e3e 430c 363f
000001e0: 7fe3 013f 7987 863f 7591 a6bb 6cfb 5e3f
000001f0: 9f20 f83e fa22 963e 02ae 02bf 5e22 9dbe
00000200: de33 07bf e12b bfbe 9425 1cbf d8e6 8bbe
00000210: 3da6 fbbe 2f6e c5be af2f 05bf 49a7 01bd
00000220: ad60 3e3e 435c b3bc 4fb7 c13d dcb9 c63e
00000230: 34e1 3e3e 0730 3abc b791 e53d e56f b6bd
00000240: cde5 da3e 5a44 15be 864b c7bd fe12 6ebe
00000250: 735c 8c3e b64b a4be 0858 d83d ab18 f4bd
00000260: 79e7 013f bf0d 3b3c 235d d93c 8bd8 27bd
00000270: b23d 913d 73aa 48bd c4ca e73c ff24 23be
00000280: 123b d5bd 3b62 83bd 567d 16bf c47e 2dbf
00000290: fff3 1fbf 47e8 85bb 07fd cabe b10e 19bf
000002a0: d6b0 47bf 3338 f3be 6027 2cbf 6aab 133e
000002b0: d67f fc3d 9338 0c3e 62ef 9b3e 1604 133f
000002c0: da5f f53d 2da6 253d d4a9 8e3e bc6f 173f
000002d0: 6d12 b0bd 8c01 873d 29d0 553d 5048 c1bd
000002e0: dde7 efbe 65c1 39be 9354 693e 6818 e2bc
000002f0: b7d1 d03b 7779 47bd c869 18be c3fd 6fbd
00000300: b57f 953d ac08 88be ea0e 9f3d 153f a1bd
00000310: b838 6fbc efac 50bd 2526 883d 7b29 c8bd
00000320: fb6e 11be 723b ffbd 1d82 a0be 522b c03d
00000330: 41e8 c4bd 7755 8f3d 3f45 d7bc 4e25 4cbf
00000340: f5d2 52bf 55a8 38bf 75c2 68bf 75f6 f8be
00000350: 6978 58bf bcb2 36bf f453 67bf 1190 50bf
00000360: a2a4 ea3d 5ac4 b13e bf8f 823e e87a 773e
00000370: 5b4a a63e b8c4 ec3d 06a0 823f 8c32 ac3d
00000380: b3d4 c43e 0828 983e b5b1 083f 87b6 d73f
00000390: b1cf a23d f65d d73e 3041 d73d 182e 453e
000003a0: 1ed7 43bd 082c 3f3d fd98 9fbe b9ee 0fbd
000003b0: a5d7 c2bd e5e9 e03d e759 afbd 1a6a 553d
000003c0: 60ed 4dbe 19ef 34bd 7d13 c6bd 469e 30be
000003d0: 276a 933e 82cc 52bc f7d9 6e3e a53f dc3d
000003e0: 9ac6 943d 2832 d1bc ec17 d1bd 2bb8 6e3d
000003f0: 441b f23b b675 363e 3a84 a83d d151 c43d

conv1.bias f4 [32]
-0.12001402 -0.30276775 -0.3587463 -0.023903077 -0.17641042 1.005991 -0.031594876 0.2520386
-0.11345079 -0.2777597 0.34207898 0.11730496 -0.045157105 -0.06095835 -0.006240284 -0.07441266
0.21620914 -0.024767565 -0.054679915 0.15868314 0.63640255 -0.100172155 -0.11880461 -0.030971065
-0.034829635 -0.08895224 0.21585283 0.50649345 0.14125684 0.10212774 -0.04235164 0.095504776
00000000: e9c9 f5bd 6004 9bbe 98ad b7be 63d0 c3bc
00000010: efa4 34be 50c4 803f a169 01bd 340b 813e
00000020: e358 e8bd 8536 8ebe fa24 af3e 953d f03d
00000030: a8f6 38bd 76af 79bd 4c7b ccbb aa65 98bd
00000040: ee65 5d3e 59e5 cabc 0cf8 5fbd d57d 223e
00000050: 47eb 223f 0f27 cdbd d54f f3bd 08b7 fdbc
00000060: 85a9 0ebd 982c b6bd 8608 5d3e 8ea9 013f
00000070: a2a5 103e 5928 d13d ea78 2dbd 0298 c33d

conv2.weight f4 [64, 32, 3, 3]
0.14414985 -0.19560087 0.0730417 -0.13091801 -0.099566475 -0.18983948 -0.0076639163 -0.043623433
0.07982087 0.17553872 -0.1932311 -0.061086874 -0.042312253 -0.11074885 -0.10443797 -0.098110616
0.10579444 -0.049388107 0.071397714 -0.079278275 0.08518511 -0.19775696 -0.12772055 0.07195073
-0.014701541 -0.18462098 0.092093684 0.190807 -0.0108359875 0.1644695 0.040895432 -0.036129333
-0.045714453 0.09104882 0.252556 0.021188492 -0.12822989 -0.10579061 -0.16689898 -0.10671757
-0.07159374 -0.0617163 0.083994456 -0.11030912 -0.034094866 -0.091364756 0.07924349 0.020672308
-0.06336214 0.08652849 -0.011240625 -0.1093855 -0.015969897 0.13995823 0.15087989 0.019109981
0.10373658 -0.12977092 0.038909316 -0.025527827 -0.12207274 0.07367017 0.013444065 -0.18839213
-0.07066583 0.32174933 -0.002639351 0.012279075 -0.08628447 -0.16833861 -0.09872048 0.0066387793
-0.030594954 -0.053164106 -0.08380279 -0.03887165 0.0360238 0.14484473 0.10824665 -0.11230276
-0.0067813466 -0.104422286 -0.10437177 -0.016161058 -0.24628691 -0.052709263 -0.08919401 0.21207649
-0.18179633 -0.1424848 -0.08289218 -0.11919631 -0.14119625 -0.17453405 -0.060896818 -0.11281494
0.08066355 0.04058943 -0.09198715 0.2119093 0.098266326 0.11201342 -0.24763614 -0.070478186
0.41927722 -0.06716134 -0.14580733 -0.18729427 0.20137644 0.034932163 0.15676053 -0.07810423
-0.08609353 0.3281927 -0.05016695 -0.20963633 -0.045968376 0.22340086 -0.0029348144 -0.06490167
0.024588952 -0.11099772 -0.09409294 -0.038401924 0.13043553 0.09066413 0.08661025 0.11245183
-0.07180006 -0.008115897 0.07307736 0.02968282 -0.06468014 0.023536878 0.042246576 -0.067807145
0.046385545 0.17722774 -0.15000604 -0.08173722 0.30533603 -0.17672189 -0.14920461 0.032738183
0.06273614 -0.051505797 -0.007006106 -0.21270171 0.0034901882 0.18396057 -0.09050388 0.3892986
-0.03646653 0.03297707 -0.022688385 -0.12351174 -0.1984755 -0.11076935 0.12267079 0.07194058
0.5659379 -0.10444873 0.037146367 -0.06768406 0.23879167 0.014185632 -0.21755561 0.12131495
-0.16342829 0.11126914 0.04167078 -0.16626287 -0.11292371 -0.1066325 -0.0118738925 0.14466253
-0.14217173 0.067224644 -0.023454057 -0.10948107 -0.17982282 -0.07691136 -0.05871036 -0.15290968
-0.0046598986 -0.0744853 -0.105280824 -0.124908194 0.038602177 0.0005846217 -0.06923581 -0.043433305
-0.1867375 -0.22391018 0.014264548 0.06280172 -0.17865852 0.107603244 0.25346327 -0.08843235
0.25705194 -0.10918959 -0.14791477 0.3289822 0.11777994 0.15392609 -0.08761737 0.3331556
0.062941015 -0.07490247 0.007513703 0.008949537 0.1684209 -0.07773501 0.09330635 -0.020608803
-0.07180444 -0.20307904 0.23544756 -0.24708617 -0.077444755 0.15102097 0.047116775 -0.26250145
0.10755728 -0.09843854 -0.0800954 -0.0010691521 -0.043436468 -0.26141557 -0.02786971 0.057069924
-0.18987241 -0.026867876 -0.060621575 0.030023716 0.048503175 -0.07848368 -0.022141758 8.63757e-05
-0.21737316 -0.20550902 0.16985878 -0.14054793 0.08278527 -0.023523927 -0.0036531868 0.075103804
-0.045144252 -0.38013676 -0.122986495 -0.017022932 -0.1440184 0.0048278808 -0.18202728 0.00943811
00000000: 059c 133e 984b 48be e396 953d 5f0f 06be
00000010: 82e9 cbbd 4865 42be 9721 fbbb 7cae 32bd
00000020: 2079 a33d 6cc0 333e 60de 45be 3b36 7abd
00000030: 9d4f 2dbd 4bd0 e2bd 93e3 d5bd 38ee c8bd
00000040: c1aa d83d 2f4b 4abd f738 923d a65c a2bd
00000050: 8875 ae3d cd80 4abe 2dc9 02be e85a 933d
00000060: bbde 70bc 480d 3dbe 9d9b bc3d e962 433e
00000070: 6d89 31bc b16a 283e f881 273d 5afc 13bd
00000080: 143f 3bbd ce77 ba3d 054f 813e 7d93 ad3c
00000090: b24e 03be bfa8 d8bd 91e7 2abe be8e dabd
000000a0: bd9f 92bd 3bca 7cbd 4905 ac3d bfe9 e1bd
000000b0: 0fa7 0bbd 721d bbbd 694a a23d f958 a93c
000000c0: 02c4 81bd d935 b13d 992a 38bc 8105 e0bd
000000d0: 4dd3 82bc 3651 0f3e 4280 1a3e 898c 9c3c
000000e0: d873 d43d abe2 04be 605f 1f3d bc1f d1bc
000000f0: 4601 fabd 63e0 963d 7f44 5c3c dee9 40be
00000100: 3fb9 90bd 54bc a43e f6f8 2cbb 2c2e 493c
00000110: eab5 b0bd f560 2cbe f72d cabd 1e8a d93b
00000120: 45a2 fabc 9bc2 59bd cca0 abbd e137 1fbd
00000130: b18d 133d 2d52 143e 6bb0 dd3d fdfe e5bd
00000140: 0f36 debb 5adb d5bd dec0 d5bd 3264 84bc
00000150: a332 7cbe abe5 57bd 59ab b6bd 942a 593e
00000160: d128 3abe 89e7 11be 60c3 a9bd 321d f4bd
00000170: c095 10be 0eb9 32be f16e 79bd 850b e7bd
00000180: ee32 a53d 1a41 263d c263 bcbd c0fe 583e
00000190: db3f c93d 4b67 e53d 5494 7dbe de56 90bd
000001a0: 81ab d63e e28b 89bd 844e 15be 12ca 3fbe
000001b0: a035 4e3e 0715 0f3d d585 203e 1cf5 9fbd
000001c0: ce51 b0bd e008 a83e dc7b 4dbd e8aa 56be
000001d0: 5649 3cbd 32c3 643e 0456 40bb 2beb 84bd
000001e0: c56e c93c c652 e3bd cdb3 c0bd 564b 1dbd
000001f0: e490 053e 1eae b93d b760 b13d 254d e63d
00000200: e90b 93bd 8af8 04bc 95a9 953d 6329 f33c
00000210: 0577 84bd 69d0 c03c bf0a 2d3d 79de 8abd
00000220: c5fe 3d3d 307b 353e 2f9b 19be d865 a7bd
00000230: 0155 9c3e 95f6 34be 18c9 18be 7918 063d
00000240: ce7b 803d bef7 52bd 7a93 e5bb 7ace 59be
00000250: a4bb 643b 2960 3c3e 195a b9bd 2552 c73e
00000260: ee5d 15bd f712 073d fedc b9bc b9f3 fcbd
00000270: 293d 4bbe 0adb e2bd d33a fb3d 9555 933d
00000280: 4ee1 103f 37e9 d5bd ca26 183d f19d 8abd
00000290: ce85 743e da6a 683c e6c6 5ebe f973 f83d
000002a0: bf59 27be 13e1 e33d fbae 2a3d d040 2abe
000002b0: 8c44 e7bd 2462 dabd b78a 42bc 6a22 143e
000002c0: 7795 11be 13ad 893d b922 c0bc 9c37 e0bd
000002d0: 7923 38be b483 9dbd 467a 70bd 5b94 1cbe
000002e0: 10b2 98bb c08b 98bd 799d d7bd decf ffbd
000002f0: 511d 1e3d 4c41 193a 81cb 8dbd 1fe7 31bd
00000300: 1d38 3fbe b648 65be dab5 693c 309e 803d
00000310: 42f2 36be 175f dc3d f0c5 813e 051c b5bd
00000320: 509c 833e cb9e dfbd f876 17be 5b70 a83e
00000330: 9c36 f13d cd9e 1d3e bc70 b3bd 5f93 aa3e
00000340: 38e7 803d 7766 99bd 8235 f63b 14a1 123c
00000350: 8776 2c3e 8833 9fbd 6617 bf3d cbd3 a8bc
00000360: 350e 93bd f4f3 4fbe 2a19 713e 2804 7dbe
00000370: 5b9b 9ebd 3ea5 1a3e 85fd 403d 9766 86be
00000380: fe46 dc3d 259a c9bd 0f09 a4bd cb22 8cba
00000390: 70ea 31bd 43d8 85be 054f e4bc 27c2 693d
000003a0: ea6d 42be 051a dcbc 544e 78bd 4cf4 f53c
000003b0: 44ab 463d 0dbc a0bd a262 b5bc 9a24 b538
000003c0: 1297 5ebe f570 52be 76ef 2d3e cceb 0fbe
000003d0: 538b a93d 40b5 c0bc 4e6a 6fbb 06d0 993d
000003e0: 2ee9 38bd 49a1 c2be 58e0 fbbd ad73 8bbc
000003f0: 8f79 13be 3333 9e3b 5c65 3abe 4da2 1a3c

conv2.bias f4 [64]
-0.12102577 -0.03331324 -0.19532117 0.14816025 0.031900123 -0.14916661 -0.22188315 0.046232946
0.13954423 -0.29201943 -0.20499964 0.013055285 -0.1322011 0.04490647 -0.2462423 -0.047722712
-0.11287829 -0.14901859 -0.15479589 -0.12687534 -0.09722347 -0.047671393 0.0029715067 0.17454821
-0.075335175 -0.06944557 0.12301195 -0.02760252 -0.02674808 0.10008125 -0.24130078 0.004715588
-0.35536185 0.054437842 -0.091800876 0.024857005 -0.07035583 -0.054741777 0.04535679 -0.14407587
-0.058042925 -0.19371095 -0.02893938 -0.17922923 -0.036137164 -0.1646633 -0.2372492 -0.29984373
-0.16219057 -0.069730386 -0.073272444 -0.18863948 -0.07950027 -0.26452452 -0.04915916 -0.2065496
0.009104755 -0.05310089 -0.1742069 -0.1141245 -0.015571369 -0.0607273 0.0018457 0.04703765
00000000: 5cdc f7bd 7773 08bd 4602 48be 52b7 173e
00000010: b4a9 023d 22bf 18be 5635 63be c25e 3d3d
00000020: afe4 0e3e 9283 95be 6deb 51be d6e5 553c
00000030: ba5f 07be d9ef 373d f126 7cbe e478 43bd
00000040: bc2c e7bd 5498 18be d082 1ebe 9ceb 01be
00000050: 191d c7bd 1443 43bd 9cbd 423b c4bc 323e
00000060: 5449 9abd 7b39 8ebd b0ed fb3d ae1e e2bc
00000070: ca1e dbbc 66f7 cc3d 8d17 77be 3885 9a3b
00000080: fdf1 b5be 37fa 5e3d 1902 bcbd eba0 cb3c
00000090: b816 90bd ea38 60bd 0bc8 393d a088 13be
000000a0: 6bbe 6dbd 2a5c 46be 4712 edbc de87 37be
000000b0: 9004 14bd 7f9d 28be 74f1 72be 1e85 99be
000000c0: 4915 26be cece 8ebd dd0f 96bd b52a 41be
000000d0: 0ad1 a2bd c26f 87be 1e5b 49bd bd81 53be
000000e0: 1c2c 153c 5280 59bd 4b63 32be 1bba e9bd
000000f0: 0e1f 7fbc 30bd 78bd 6aeb f13a 8daa 403d

conv3.weight f4 [128, 64, 3, 3]
0.010489978 -0.12744202 -0.11715524 0.122083254 -0.111779705 -0.01035746 0.12444208 -0.12917165
0.06556956 -0.06478866 -0.17772716 -0.11393609 -0.029273417 -0.10379823 0.2057738 -0.13245302
0.19183794 0.061541606 -0.18093766 -0.08650019 -0.07156937 -0.23660575 -0.1141174 0.18991832
-0.06698377 -0.07612918 0.052940402 0.08436367 -0.08859949 0.005558536 -0.070435345 0.0018746624
-0.05037775 -0.12836064 -0.13284594 -0.0930903 0.016121382 0.09173138 -0.29339907 -0.045007635
-0.0030349328 -0.16002087 0.02464853 0.11287779 -0.04876098 -0.16066746 -0.15468732 -0.04824199
0.19451357 -0.009288179 -0.0067299725 0.23065975 0.16686678 -0.03251516 -0.13356458 0.046689387
-0.013639704 -0.11330444 0.14661792 -0.044322766 0.030509215 0.016086701 -0.06511845 -0.13952866
-0.0101447785 -0.2097666 -0.04017377 -0.014321668 -0.013913086 -0.10000063 -0.028648917 0.04845749
-0.060809936 -0.22232771 0.134997 -0.18129699 -0.2799046 -0.21327913 -0.016091239 -0.08844619
-0.002084763 -0.12533711 -0.12678416 -0.29325363 -0.048193425 -0.06246215 0.0031945906 0.09105119
-0.071756884 0.1314178 0.034389272 -0.004098627 -0.02993046 -0.035069596 0.24239048 0.106119014
-0.079440564 0.041641485 -0.049277127 0.04714939 -0.10619633 0.019336373 -0.10844031 0.080547936
-0.029376676 0.14419481 -0.08340123 -0.25812843 -0.051708017 0.12089984 0.051143054 0.09115929
-0.19436991 -0.01509309 0.0904431 0.17979029 -0.08511491 -0.14453915 0.09450501 -0.13728999
0.05443184 0.20277137 0.2112614 0.0074618394 -0.13309887 -0.0931088 0.0298159 0.15724118
-0.03419733 0.17397326 0.050650008 0.066777095 0.022764303 -0.084474675 -0.0010591622 0.11294276
0.05251428 0.07020565 0.15568241 0.06423256 0.13814838 0.017114813 -0.07681404 -0.0014090209
-0.11910604 0.14912371 -0.10509138 0.11968737 -0.062136095 0.15596378 -0.0410461 -0.037954185
-0.13732524 -0.036882766 -0.046719927 -0.098437734 0.083601326 -0.09482422 -0.020303708 0.19071451
0.05894055 -0.24152419 0.045923624 -0.039404076 -0.09416038 -0.16925341 0.008831928 0.020054521
0.09094345 -0.06959601 -0.23715168 -0.15814166 0.03783057 -0.07071962 0.06814869 -0.26218382
0.1016643 0.089543134 0.23110627 -0.034518916 -0.0328613 0.049751576 -0.083923794 0.08203109
0.05795809 0.08453437 0.060306355 0.043710947 -0.07787904 -0.18193412 -0.079188935 -0.07760207
0.06914708 -0.02168104 -0.0022182332 -0.064509585 -0.008628114 -0.028707283 0.091280416 0.1943975
0.13499992 0.105864845 0.14446981 0.15982771 -0.013088895 -0.030469732 -0.18966432 0.08988167
-0.19250973 -0.32551426 0.05754461 0.022310443 -0.05625967 0.009510775 -0.0041939784 -0.028144246
-0.08869136 -0.23158973 -0.01937668 0.06291517 0.048354927 0.040855434 0.02034909 -0.1112375
-0.07589998 -0.18493846 -0.0038603947 0.07036947 0.028817771 -0.09632346 0.05211531 0.1108823
0.10398087 -0.052013207 -0.022020463 -0.17466654 -0.07717388 0.07453498 -0.085787944 -0.081064194
0.066528626 -0.23621237 -0.057504743 -0.18300211 -0.11972478 0.02512292 -0.19960046 -0.015449838
-0.0042552445 -0.060000792 -0.18555035 -0.277662 -0.1135532 -0.16001953 -0.30546495 -0.06793794
00000000: 28de 2b3c 2980 02be 16ef efbd c906 fa3d
00000010: c2ec e4bd 56b2 29bc 7ddb fe3d 9345 04be
00000020: 5549 863d ebaf 84bd 1cfe 35be 5357 e9bd
00000030: cece efbc 2b94 d4bd 5eb6 523e c4a1 07be
00000040: 2a71 443e 0d13 7c3d b947 39be 0327 b1bd
00000050: f692 92bd c748 72be 62b6 e9bd f379 423e
00000060: c92e 89bd 9ee9 9bbd 09d8 583d dcc6 ac3d
00000070: a673 b5bd 6124 b63b 6840 90bd 3bb7 f53a
00000080: e658 4ebd f970 03be c408 08be 21a6 bebd
00000090: fd10 843c a9dd bb3d 6738 96be ed59 38bd
000000a0: b9e5 46bb 83dc 23be b7eb c93c 792c e73d
000000b0: 98b9 47bd 0386 24be 5a66 1ebe 6599 45bd
000000c0: 912e 473e 722d 18bc 1a87 dcbb 1232 6c3e
000000d0: 20df 2a3e 9e2e 05bd 27c5 08be 5f3d 3f3d
000000e0: 1179 5fbc 290c e8bd 0223 163e ca8b 35bd
000000f0: 76ee f93c 42c8 833c d25c 85bd 9ae0 0ebe
00000100: 4936 26bc 0ecd 56be 408d 24bd 6ea5 6abc
00000110: b6f3 63bc 21cd ccbd 22b1 eabc 5c7b 463d
00000120: d713 79bd e0a9 63be a73c 0a3e eba5 39be
00000130: a84f 8fbe d865 5abe c6d1 83bc 4723 b5bd
00000140: 85a0 08bb 5f58 00be b5d3 01be 5725 96be
00000150: 7866 45bd 50d8 7fbd 565c 513b 0c79 ba3d
00000160: 46f5 92bd 6392 063e c4db 0c3d c64d 86bb
00000170: b930 f5bc 23a5 0fbd 3635 783e ed54 d93d
00000180: bcb1 a2bd 4390 2a3d d0d6 49bd b81f 413d
00000190: 767d d9bd 5067 9e3c f415 debd 51f6 a43d
000001a0: 5ba7 f0bc cea7 133e 44ce aabd 6929 84be
000001b0: c9cb 53bd 569a f73d 617b 513d b9b1 ba3d
000001c0: e808 47be 0249 77bc 3b3a b93d f21a 383e
000001d0: ba50 aebd 1202 14be d88b c13d bf95 0cbe
000001e0: ecf3 5e3d 4ca3 4f3e e954 583e 7282 f43b
000001f0: 124b 08be d4af bebd 7940 f43c d503 213e
00000200: 8012 0cbd 0c26 323e 6276 4f3d 6ec2 883d
00000210: 347c ba3c 0f01 adbd 96d3 8aba 894e e73d
00000220: 3719 573d fbc7 8f3d 366b 1f3e 5c8c 833d
00000230: c576 0d3e 5d34 8c3c ae50 9dbd e5ae b8ba
00000240: deed f3bd e3b3 183e 263a d7bd a71e f53d
00000250: 6b82 7ebd f8b4 1f3e f51f 28bd d975 1bbd
00000260: fd9e 0cbe 6212 17bd 655d 3fbd b999 c9bd
00000270: 2c37 ab3d 3333 c2bd f653 a6bc aa4a 433e
00000280: a56b 713d 1e52 77be 691a 3c3d 2b66 21bd
00000290: 28d7 c0bd c450 2dbe cab3 103c 6149 a43c
000002a0: 8f40 ba3d 5a88 8ebd e4d7 72be e3ef 21be
000002b0: 3af4 1a3d 73d5 90bd 8a91 8b3d f53c 86be
000002c0: 5f35 d03d 6462 b73d 1fa7 6c3e b563 0dbd
000002d0: 9299 06bd 4fc8 4b3d 3de0 abbd ebff a73d
000002e0: 7665 6d3d 5b20 ad3d cc03 773d 400a 333d
000002f0: 0c7f 9fbd f04c 3abe cf2d a2bd d6ed 9ebd
00000300: fc9c 8d3d 709c b1bc c75f 11bb 9a1d 84bd
00000310: ef5c 0dbc 892b ebbc 3af1 ba3d 2310 473e
00000320: 6b3d 0a3e abcf d83d e5ef 133e e0a9 233e
00000330: ce72 56bc a99b f9bc 5d37 42be e213 b83d
00000340: 4521 45be cea9 a6be e6b3 6b3d 64c4 b63c
00000350: 8a70 66bd 15d3 1b3c a46d 89bb c38e e6bc
00000360: d1a3 b5bd dc25 6dbe d8bb 9ebc abd9 803d
00000370: d10f 463d 0758 273d 23b3 a63c 7dd0 e3bd
00000380: 7371 9bbd 8260 3dbe adfe 7cbb de1d 903d
00000390: 3f13 ec3c 3c45 c5bd dd76 553d 4216 e33d
000003a0: ecf3 d43d cd0b 55bd 4264 b4bc c9db 32be
000003b0: 570d 9ebd cca5 983d 97b1 afbd fc04 a6bd
000003c0: 2940 883d a8e1 71be 188a 6bbd e864 3bbe
000003d0: 4432 f5bd 95ce cd3c 1064 4cbe 5121 7dbc
000003e0: 946f 8bbb 64c3 75bd e900 3ebe b729 8ebe
000003f0: 958e e8bd 29dc 23be e765 9cbe 0c23 8bbd

conv3.bias f4 [128]
-0.123512566 -0.19166788 -0.109790765 -0.19213022 -0.13747054 -0.14920123 -0.13805959 -0.19102049
-0.16071671 0.06727015 -0.07359458 -0.14652984 -0.08931598 -0.19746983 -0.097826585 -0.20950823
-0.07019107 -0.098896034 -0.11260469 -0.111574434 -0.01616319 -0.24862976 -0.17590791 -0.23423354
-0.18925698 -0.1453706 -0.19439556 -0.15898609 -0.16770382 -0.24064942 -0.08163774 -0.12129506
-0.098095015 -0.17350309 -0.09211013 -0.19684303 -0.05420072 -0.1294078 -0.21609934 -0.0775334
-0.089487955 -0.24351582 -0.10706931 -0.08426134 0.016732415 -0.10913844 -0.20811334 -0.19257654
-0.14915267 -0.2304021 -0.19315204 -0.13349807 -0.22187269 -0.13228345 -0.049380578 -0.16394417
-0.24940167 -0.14353865 -0.10584454 -0.1567514 -0.07285958 -0.18055761 -0.07473213 -0.08984167
0.03416516 -0.11346094 -0.19450545 -0.17900948 -0.14924447 -0.13493179 -0.15441945 -0.13668877
-0.20354699 -0.18692134 -0.17236654 -0.123048924 -0.22378129 -0.19616097 -0.070371285 0.18082173
-0.09736098 -0.13730729 -0.12160603 -0.13225004 -0.15657805 -0.32772818 -0.16672641 -0.16349536
-0.20638397 -0.13051523 -0.23869048 0.18043663 -0.19960195 -0.063655846 -0.18863401 -0.16949281
-0.108638436 -0.08843213 -0.21098043 -0.066248305 -0.08258671 -0.14087254 -0.124658346 -0.18744
-0.14811425 0.011880958 -0.16488722 -0.12798314 -0.13584 -0.024856653 -0.19418745 -0.06836046
-0.17569473 -0.12440713 -0.16124618 -0.13254064 -0.05197481 -0.07520698 -0.215218 -0.1549817
-0.23779885 -0.11291039 -0.12316064 -0.11318002 -0.23657142 -0.07422785 -0.1576162 -0.093185484
00000000: 28f4 fcbd 9644 44be fbd9 e0bd c9bd 44be
00000010: 14c5 0cbe 35c8 18be 7e5f 0dbe e09a 43be
00000020: ec92 24be efc4 893d c1b8 96bd eb0b 16be
00000030: 4ceb b6bd 8835 4abe 4e59 c8bd 5389 56be
00000040: 56c0 8fbd 018a cabd 4a9d e6bd 2381 e4bd
00000050: ab68 84bc cd98 7ebe 3421 34be ebda 6fbe
00000060: 95cc 41be 08dc 14be a10f 47be 40cd 22be
00000070: 8dba 2bbe cd6c 76be b031 a7bd 8b69 f8bd
00000080: 0ae6 c8bd cbaa 31be 3ca4 bcbd 3891 49be
00000090: 9301 5ebd 7a83 04be 2549 5dbe d5c9 9ebd
000000a0: 7645 b7bd 365c 79be 2847 dbbd 3691 acbd
000000b0: 6b12 893c f983 dfbd aa1b 55be c932 45be
000000c0: 7abb 18be 87ee 6bbe a6c9 45be b8b3 08be
000000d0: 9832 63be 5075 07be 4a43 4abd fbe0 27be
000000e0: 2763 7fbe ccfb 12be 06c5 d8bd 7083 20be
000000f0: 6737 95bd 18e4 38be 290d 99bd e9fe b7bd
00000100: c4f0 0b3d 365e e8bd 702c 47be 434e 37be
00000110: 8bd3 18be 8f2b 0abe 2220 1ebe 24f8 0bbe
00000120: 9f6e 50be 4f68 3fbe db80 30be 1301 fcbd
00000130: ec26 65be 6cde 48be d21e 90bd 5529 393e
00000140: 3265 c7bd 489a 0cbe 950c f9bd 8e6c 07be
00000150: ff55 20be fdcb a7be 54ba 2abe 546b 27be
00000160: 5256 53be c9a5 05be 476b 74be 61c4 383e
00000170: 7464 4cbe ff5d 82bd 4629 41be 868f 2dbe
00000180: d47d debd e81b b5bd 410b 58be 31ad 87bd
00000190: 3923 a9bd e440 10be e04c ffbd 45f0 3fbe
000001a0: 43ab 17be 5aa8 423c 32d8 28be 030e 03be
000001b0: a419 0bbe 2ea0 cbbc 13d9 46be 9200 8cbd
000001c0: 52e9 33be 2ac9 febd b81d 25be bcb8 07be
000001d0: 8ae3 54bd 1e06 9abd 1b62 5cbe 86b3 1ebe
000001e0: 8b81 73be 903d e7bd a53b fcbd edca e7bd
000001f0: c73f 72be c504 98bd 2466 21be 08d8 bebd

act_conv1.weight f4 [4, 128, 1, 1]
-0.36591604 0.27208236 -0.0026067311 0.8515623 0.10998184 0.81319857 -0.09821376 0.5378656
-0.7544291 -0.45680723 0.16151853 0.6758101 0.33841267 1.0133208 -0.034775265 0.30825737
0.02215303 0.34224322 -0.7722629 -0.21707936 -1.6333656 -0.78165776 0.5270013 0.9303508
-0.21245968 0.24637125 0.53572786 -0.57793003 0.5869726 0.70668423 0.00087463204 0.6385585
-0.0126842335 0.23068544 -0.00038598164 0.91643536 0.15502957 0.60609186 0.2933073 0.5835485
0.032553624 -0.37627617 0.12510626 -0.72768205 0.066607796 -0.07459559 -0.3709428 0.56464213
0.2250324 0.20008273 0.38379562 0.38609177 0.8516462 -0.663476 -0.21072392 0.94782317
-0.64975226 0.36696047 -0.896634 0.42557475 0.4822553 0.44541118 -1.0343194 0.032547276
-0.06550904 -0.015690781 -0.09301688 0.19429693 0.13386865 -0.34316158 -0.18143511 -0.67981833
0.517772 -0.57218677 0.48638278 -0.28665617 -0.2660213 0.55851746 -0.101215616 -1.8074216
-0.9500846 0.2955001 -0.44730845 0.8462573 0.6534142 1.3885374 0.43475163 0.31833994
0.68098974 0.40028036 -0.65999585 -1.9258908 0.34219742 0.20234838 0.62209004 0.85820097
0.16191746 0.10252915 0.86949 0.093438394 -0.30875605 -0.097613335 0.03674341 -0.14384939
-0.21650125 -1.1015806 0.75415957 0.10589353 0.07287363 -0.045441084 0.7773929 -0.17598285
0.15377468 -0.49027863 -0.08327055 0.038832407 -0.3459725 0.39719805 0.6484221 -0.13381803
1.0818956 -1.2073406 0.07148194 0.011164037 1.1752069 -0.019270604 -0.30526733 0.5811077
-0.16683713 0.19953556 -1.0939288 0.55569834 -0.041536305 0.35316557 0.45279345 0.2898156
-0.1781291 0.15077847 -1.39198 0.10560813 0.18393423 0.26549515 0.1611778 -0.8924708
-0.30973533 -0.06960739 0.5773812 -0.3747169 0.061254293 0.5259054 -0.7570082 0.31532466
0.59630555 0.31489062 0.45830566 -0.5291124 0.61431545 -0.5563916 -0.014517774 0.19818348
0.15634063 -1.2970666 0.23564959 0.35924232 -0.6280035 0.54339653 0.47343343 -0.9146569
0.37084064 0.64830697 0.10049316 0.31530818 -0.30298012 -0.033707544 0.4589164 0.65393525
0.3115781 -0.16621003 0.5888276 -0.72017825 0.21081 -0.7767138 0.22110724 0.39512718
0.30270696 -1.301085 0.36734468 -1.0942289 -1.2465943 0.59209675 -0.082823195 0.22166187
0.27723813 -1.3997872 0.7554426 -0.12738027 -1.4004401 0.57217366 -0.046450105 -0.13712873
-0.3724216 -0.472721 -0.9381634 -1.0495932 0.4991821 0.6245488 -0.8890749 0.008252269
0.38822347 0.33036274 0.5142414 -0.3142717 -0.18454893 0.27665094 0.3470532 -0.3041035
0.2557834 -0.038917802 -0.8483389 0.13787535 0.2515594 -1.3499025 -1.0964648 -0.45541504
0.37424228 -0.2274287 -0.17133 0.119410135 0.235864 0.042226855 -1.0418603 -1.254487
-0.18340538 0.07727104 -0.28903046 -0.41037002 -1.4342982 0.39647275 0.34451357 0.31541756
0.5031415 -1.1678399 -1.369825 -0.34135598 0.12184555 0.104490995 0.8369535 0.5088131
0.4618964 -0.03297973 -1.1969998 -1.197473 0.16411893 -0.86791193 -1.078439 -0.7426803
00000000: 5959 bbbe 614e 8b3e b1d5 2abb fdff 593f
00000010: 293e e13d c82d 503f 4c24 c9bd 8fb1 093f
00000020: 4422 41bf a3e2 e9be 1d65 253e e401 2d3f
00000030: 6d44 ad3e 7fb4 813f 8270 0ebd e9d3 9d3e
00000040: 457a b53c 813a af3e 05b3 45bf 0d4a 5ebe
00000050: 2012 d1bf b91a 48bf 8fe9 063f 782b 6e3f
00000060: 088f 59be bf48 7c3e 7625 093f 39f3 13bf
00000070: d643 163f 42e9 343f 9047 653a 9278 233f
00000080: 88d1 4fbc ce38 6c3e 945d cab9 829b 6a3f
00000090: 12c0 1e3e d628 1b3f 602c 963e 6f63 153f
000000a0: f356 053d 45a7 c0be db1b 003e 5f49 3abf
000000b0: ab69 883d 93c5 98bd 37ec bdbe 638c 103f
000000c0: e56e 663e 7de2 4c3e dc80 c43e d2ad c53e
000000d0: 7c05 5a3f 90d9 29bf 03c8 57be 8aa4 723f
000000e0: 2a56 26bf 3ee2 bb3e ce89 65bf efe4 d93e
000000f0: 2bea f63e ef0c e43e 9464 84bf 4b50 053d
00000100: 9b29 86bd f489 80bc a27f bebd c6f5 463e
00000110: dd14 093e e0b2 afbe 20ca 39be 9308 2ebf
00000120: b58c 043f d57a 12bf 2a07 f93e 99c4 92be
00000130: f233 88be 00fb 0e3f 224a cfbd 9759 e7bf
00000140: bf38 73bf ca4b 973e 9d05 e5be 52a4 583f
00000150: 2746 273f 98bb b13f c497 de3e 74fd a23e
00000160: 5855 2e3f 8cf1 cc3e 7df5 28bf 9783 f6bf
00000170: 8034 af3e 6a34 4f3e 4b41 1f3f 0fb3 5b3f
00000180: b1cd 253e cefa d13d e696 5e3f a15c bf3d
00000190: 4615 9ebe 80e9 c7bd 4280 163d 414d 13be
000001a0: 81b2 5dbe 9800 8dbf 9a10 413f b5de d83d
000001b0: c53e 953d 6e20 3abd 3903 473f d934 34be
000001c0: 1c77 1d3e cd05 fbbe c089 aabd bb0e 1f3d
000001d0: 4f23 b1be 8b5d cb3e fefe 253f 9807 09be
000001e0: 8e7b 8a3f 238a 9abf 2065 923d 5de9 363c
000001f0: 2e6d 963f 63dd 9dbc 004c 9cbe 79c3 143f
00000200: 5ad7 2abe 0d53 4c3e dc05 8cbf 3f42 0e3f
00000210: f921 2abd 1ed2 b43e 8bd4 e73e b662 943e
00000220: 7a67 36be ac65 1a3e 672c b2bf 1349 d83d
00000230: 4159 3c3e fbee 873e cb0b 253e f778 64bf
00000240: a195 9ebe 528e 8ebd 41cf 133f e5da bfbe
00000250: c8e5 7a3d bca1 063f 4acb 41bf 3c72 a13e
00000260: 7ba7 183f 5839 a13e 0aa7 ea3e e973 07bf
00000270: c743 1d3f ae6f 0ebf f5db 6dbc 9cf0 4a3e
00000280: c217 203e 4706 a6bf 204e 713e 9cee b73e
00000290: d6c4 20bf 091c 0b3f de65 f23e f426 6abf
000002a0: d3de bd3e 72f7 253f 5ccf cd3d 1370 a13e
000002b0: 3620 9bbe ec10 0abd 17f7 ea3e 4d68 273f
000002c0: 2a87 9f3e f632 2abe 68bd 163f 9a5d 38bf
000002d0: 94de 573e b7d6 46bf f069 623e 1c4e ca3e
000002e0: 68fc 9a3e f489 a6bf 9a14 bc3e b10f 8cbf
000002f0: 6790 9fbf a793 173f 359f a9bd 54fb 623e
00000300: 28f2 8d3e 3a2c b3bf b064 413f f96f 02be
00000310: 9f41 b3bf f979 123f 7742 3ebd 796b 0cbe
00000320: 0bae bebe 7d08 f2be 7a2b 70bf 1259 86bf
00000330: cc94 ff3e 6ee2 1f3f 6a9a 63bf 8634 073c
00000340: 3ac5 c63e 4e25 a93e 53a5 033f 38e8 a0be
00000350: 65fa 3cbe 31a5 8d3e f5b0 b13e 74b3 9bbe
00000360: 0bf6 823e 4668 1fbd bd2c 59bf 322f 0d3e
00000370: 65cc 803e 9bc9 acbf f558 8cbf 292c e9be
00000380: af9c bf3e 12e3 68be 2271 2fbe 4d8d f43d
00000390: 5586 713e 11f6 2c3d ae5b 85bf 0893 a0bf
000003a0: 9fce 3bbe 4740 9e3d cdfb 93be 051c d2be
000003b0: 1597 b7bf 7afe ca3e 1564 b03e 697e a13e
000003c0: e2cd 003f c77b 95bf 6d56 afbf 36c6 aebe
000003d0: 298a f93d 60ff d53d 9642 563f 9341 023f
000003e0: af7d ec3e c115 07bd 4a37 99bf cc46 99bf
000003f0: cb0e 283e 7a2f 5ebf 4a0a 8abf 4c20 3ebf

act_conv1.bias f4 [4]
0.52833474 0.24811657 0.29331663 0.19737554
00000000: f240 073f 4512 7e3e 992d 963e d01c 4a3e

act_fc1.weight f4 [36, 144]
0.66584057 0.034206755 -0.011831731 -0.12314536 -0.0719176 -0.12823106 -0.054151617 -0.18647227
-0.17182228 -0.25706002 -0.19214262 -0.04804592 -0.21177098 -0.37561035 -0.3387139 -0.2422414
-0.24908325 -0.23338214 -0.20236818 -0.18493949 -0.29758635 -0.25703913 -0.19660796 -0.037219863
-0.018764686 -0.081440106 -0.07791933 -0.27428836 -0.16647118 -0.080658436 -0.12824273 -0.16812338
-0.24339613 -0.26029575 -0.104797125 0.6925601 0.0037901502 -0.16151558 0.01375074 -0.10060497
0.004886697 0.1683077 -0.17247069 0.02748747 -0.2570623 0.06694567 -0.23057903 -0.08725485
-0.09725557 -0.0081337355 -0.29162458 0.20612122 -0.20761326 0.08959417 -0.25003672 0.067011155
-0.5189839 -0.23391598 -0.32641155 -0.06826322 0.012025294 0.15502585 0.07557452 0.084684506
-0.062436536 -0.06569635 -0.23727112 0.23642755 -0.34429643 0.023501687 -0.16079311 -0.24275558
0.09592355 -0.08083506 -0.091379605 -0.23291786 -0.19368291 -0.1225895 0.01719523 0.0046181576
-0.07608684 -0.018608991 -0.36324528 0.17583132 -0.1210582 -0.037442636 -0.22658671 0.040960856
0.1761669 -0.327871 -0.17830579 -0.016909143 0.10753971 -0.22639287 -0.12705114 -0.05636659
-0.23902301 -0.3975505 -0.23544654 0.07990402 -0.13762754 -0.21409093 -0.35332063 0.26580086
-0.053332005 -0.07216792 -0.25881138 0.017961929 -0.098373376 -0.30694318 0.065989174 -0.17308311
0.15985113 -0.04637199 -0.2281208 -0.10470946 -0.16495293 -0.3056056 -0.21100813 -0.0026950256
-0.176593 0.20636274 0.05621857 0.029437868 0.07545914 0.06085586 -0.25760263 -0.39197856
0.08787001 -0.3507333 -0.19367021 -0.12691317 -0.012082937 0.11051117 0.048505727 0.12632422
-0.106909275 -0.24001181 -0.27881223 0.10811995 -0.34463245 -0.052872285 -0.2209845 0.009815431
0.03405786 0.58706915 -0.0636274 -0.107528895 -0.056685988 -0.073063776 -0.16882828 -0.009514441
-0.24896772 -0.20379218 -0.27078584 -0.14439887 -0.16913605 -0.2480005 -0.32879972 -0.26939905
-0.3592927 -0.25424895 -0.17285648 -0.20599736 -0.41309458 -0.1942459 -0.17486969 -0.35439363
-0.1140929 -0.120798916 -0.17267367 -0.07983432 -0.04539368 -0.0025418447 -0.17364776 -0.041032203
-0.14180706 -0.16048771 0.6161309 0.1026532 0.1277131 -0.11148822 -0.059959814 0.0858055
0.048990417 0.18531239 -0.0036063432 0.0326862 -0.2914207 0.06753669 -0.32295933 -0.110336974
0.17962234 0.008717738 -0.19524717 0.21659046 -0.11799269 0.025639674 -0.4703785 -0.053986598
-0.37585792 -0.19569299 -0.45175955 -0.2872069 -0.013463365 0.024691015 0.31346765 -0.019630095
-0.074858055 0.024996437 -0.4470581 -0.008560359 -0.22295193 0.04344255 -0.17396331 -0.017404241
0.33087212 -0.16638725 -0.19874738 -0.15388508 -0.31035292 0.030116014 -0.08046787 0.17306837
-0.033792984 0.27292874 -0.31309667 0.19814476 -0.15335333 -0.01718615 -0.36025125 0.15646268
0.27299175 -0.3758642 -0.1121758 0.039121076 0.26755765 -0.2912988 0.18542147 0.18047722
-0.14551194 -0.26319528 -0.46548632 0.0045220037 -0.25919968 -0.2436903 -0.008254515 0.05502366
0.18116583 0.24434114 -0.010446036 -0.06153076 -0.17692693 -0.17189237 -0.055074286 0.04337158
00000000: 8774 2a3f 621c 0c3d e0d9 41bc a233 fcbd
00000010: 8949 93bd 014f 03be 16ce 5dbd 96f2 3ebe
00000020: 2ef2 2fbe 5f9d 83be 09c1 44be cccb 44bd
00000030: 7eda 58be 0050 c0be e96b adbe 210e 78be
00000040: ae0f 7fbe bafb 6ebe 9b39 4fbe c760 3dbe
00000050: 3d5d 98be a29a 83be 9953 49be db73 18bd
00000060: 66b8 99bc 12ca a6bd 2b94 9fbd 866f 8cbe
00000070: 6c77 2abe 4030 a5bd 1052 03be 8928 2cbe
00000080: d63c 79be 7c45 85be e09f d6bd 9e4b 313f
00000090: 2b64 783b 5764 25be c94a 613c fa09 cebd
000000a0: 9620 a03b db58 2c3e 289c 30be 672d e13c
000000b0: ab9d 83be d01a 893d e91c 6cbe acb2 b2bd
000000c0: ee2d c7bd 5c43 05bc d14f 95be 7111 533e
000000d0: 9298 54be 267d b73d d004 80be 253d 893d
000000e0: 21dc 04bf ac87 6fbe 6a1f a7be 96cd 8bbd
000000f0: bd05 453c 19bf 1e3e d0c6 9a3d 126f ad3d
00000100: 74bd 7fbd cf8b 86bd 33f7 72be 101a 723e
00000110: 9f47 b0be 9c86 c03c f3a6 24be eb94 78be
00000120: 9173 c43d da8c a5bd 3b25 bbbd 0582 6ebe
00000130: d054 46be 3410 fbbd 03dd 8c3c ea53 973b
00000140: 6bd3 9bbd e271 98bc 49fb b9be 200d 343e
00000150: 5ded f7bd 735d 19bd 5906 68be 92c6 273d
00000160: 1965 343e b5de a7be cb95 36be 0b85 8abc
00000170: c83d dc3d 88d3 67be b219 02be a7e0 66bd
00000180: 73c2 74be bd8b cbbe e618 71be b8a4 a33d
00000190: 3cee 0cbe a73a 5bbe 71e6 b4be 0d17 883e
000001a0: a972 5abd c6cc 93bd ed82 84be e524 933c
000001b0: fb77 c9bd a827 9dbe 5525 873d b33c 31be
000001c0: 04b0 233e 8ef0 3dbd 8098 69be ea71 d6bd
000001d0: 6ce9 28be 5678 9cbe 8412 58be 079f 30bb
000001e0: ccd4 34be c150 533e 7145 663d af27 f13c
000001f0: 528a 9a3d ff43 793d 7ee4 83be 6ab1 c8be
00000200: 31f5 b33d 5193 b3be 7c51 46be 87f5 01be
00000210: 83f7 45bc ae53 e23d f1ad 463d 235b 013e
00000220: 40f3 dabd a8c5 75be 7ac0 8ebe fe6d dd3d
00000230: aa73 b0be 9c90 58bd c349 62be e7d0 203c
00000240: 4180 0b3d 2a4a 163f 154f 82bd 1c38 dcbd
00000250: 912f 68bd 76a2 95bd 52e1 2cbe 75e2 1bbc
00000260: 65f1 7ebe e6ae 50be 71a4 8abe 4cdd 13be
00000270: 0032 2dbe d8f3 7dbe 7058 a8be acee 89be
00000280: 36f5 b7be eb2c 82be 4a01 31be f9f0 52be
00000290: 2281 d3be 66e8 46be 0a11 33be 1573 b5be
000002a0: 8aa9 e9bd 6c65 f7bd 5ed1 30be 2d80 a3bd
000002b0: b9ee 39bd 1495 26bb b8d0 31be 6211 28bd
000002c0: df35 11be e456 24be c1ba 1d3f d73b d23d
000002d0: 39c7 023e f053 e4bd 6c98 75bd cbba af3d
000002e0: 2daa 483d 88c2 3d3e 6658 6cbb f7e1 053d
000002f0: 1835 95be ad50 8a3d ed5a a5be 5af8 e1bd
00000300: ebee 373e d8d4 0e3c e0ee 47be e4c9 5d3e
00000310: 27a6 f1bd 4b0a d23c 73d5 f0be 0d21 5dbd
00000320: 7370 c0be be63 48be 074d e7be c80c 93be
00000330: 7295 5cbc d044 ca3c d57e a03e 4bcf a0bc
00000340: 2e4f 99bd 54c5 cc3c cde4 e4be bf40 0cbc
00000350: 834d 64be d1f0 313d 7023 32be 5793 8ebc
00000360: 1268 a93e 6b61 2abe 6f84 4bbe 0d94 1dbe
00000370: 94e6 9ebe dcb5 f63c 57cc a4bd d638 313e
00000380: 836a 0abd 51bd 8b3e 354e a0be 76e6 4a3e
00000390: a808 1dbe f8c9 8cbc da72 b8be c137 203e
000003a0: 93c5 8b3e 4671 c0be 6dbc e5bd 6c3d 203d
000003b0: 51fd 883e 1e25 95be 20df 3d3e 05cf 383e
000003c0: 1501 15be 88c1 86be 3954 eebe 512d 943b
000003d0: d2b5 84be f389 79be f23d 07bc 7d60 613d
000003e0: 8983 393e 9034 7a3e da25 2bbc ae07 7cbd
000003f0: 552c 35be 8e04 30be 9395 61bd 66a6 313d

act_fc1.bias f4 [36]
-0.18962714 -0.042380035 -0.07849941 -0.058560885 0.013419149 -0.30823058 -0.047834627 -0.10166086
0.14051265 0.1454785 -0.036217794 -0.061077017 -0.02174456 0.011706448 0.2108848 0.17287433
0.10835405 -0.05526701 0.072444215 0.015222111 0.18512443 0.2530218 0.15319616 -0.023455061
-0.065156154 0.061195172 0.006337949 0.03884014 0.019751752 0.013509097 -0.25948182 -0.046488553
-0.046491627 -0.13969569 0.023423847 -0.2544644
00000000: 9e2d 42be b096 2dbd 4cc4 a0bd 8add 6fbd
00000010: fedb 5b3c 66d0 9dbe 3eee 43bd 9233 d0bd
00000020: 8ce2 0f3e 51f8 143e 1c59 14bd e52b 7abd
00000030: a621 b2bc 67cc 3f3c 2ff2 573e f805 313e
00000040: bae8 dd3d a95f 62bd a25d 943d 2966 793c
00000050: 4291 3d3e 138c 813e 74df 1c3e d424 c0bc
00000060: 9770 85bd caa7 7a3d 92ae cf3b d716 1f3d
00000070: 6dce a13c 4255 5d3c cdda 84be c86a 3ebd
00000080: 016e 3ebd 630c 0fbe 5ee3 bf3c 2849 82be

val_conv1.weight f4 [2, 128, 1, 1]
-0.12124254 -0.05061449 -0.050363436 -0.13755774 0.05965378 0.06532295 0.07691274 6.5376065e-05
-0.09861351 -0.008814033 -0.05638405 -0.13114484 -0.046085026 0.059095725 -0.004504335 0.06685633
-0.029646685 -0.07759235 -0.091446534 0.040770758 0.001129136 -0.09803847 0.014645786 0.0013760731
-0.010224377 0.10640144 -0.058461264 0.0014829542 0.026484322 0.009110585 0.13371247 0.0053586774
-0.10005878 0.042682618 -0.02872763 -0.08036962 -0.14876904 -0.051011097 0.053343926 -0.016252276
0.039310873 -0.035921626 -0.05942114 0.103119224 0.0708743 0.062218886 -0.12326722 0.09617692
0.023166128 1.4288985 -0.2036013 0.023706349 -0.17426018 -0.0950898 0.0650439 0.094289064
-0.0436389 -0.10771468 0.021203956 0.05555853 0.024837064 0.11350656 0.1342642 0.07066511
-0.102532886 -0.17253962 -0.00606491 -0.08013786 0.06888193 -0.055903234 -0.030916238 0.041458935
0.18635817 -0.094305605 -0.004988093 0.03833875 0.12946115 -0.053021926 0.09353563 0.09318051
0.066386275 0.12667982 -0.02686389 -0.011073492 0.0049085678 0.06459608 -0.10277803 -0.06668078
-0.08620172 -0.037740543 0.097300455 -0.030277703 0.025186725 0.036932938 0.0298311 0.04934369
-0.03418735 -0.07084505 -0.12679611 -0.0016222433 -0.026884044 0.06824169 0.007536592 0.04982888
-0.018930452 0.04537325 0.14672802 0.03264853 0.042719126 -0.095575325 -0.020747285 -0.051351827
-0.010993747 0.026363129 -0.050116166 -0.13603446 -0.020646209 0.044000793 0.08376369 -0.065392435
0.09355264 0.07129035 0.034969892 0.035666976 0.1982454 -0.1257493 0.036485236 0.090197034
0.032082256 0.07514509 -0.16033722 0.02144383 -0.10290657 -0.038841624 -0.06397375 -0.0088498965
0.030444216 -0.15856467 -0.14200495 -0.14628565 -0.11117294 -0.10825199 -0.14915101 -0.0033261373
-0.041437898 -0.12035555 -0.09231896 -0.16905189 0.23214841 -0.15438059 9.290279e-05 0.15612443
-0.064853325 0.16289164 0.0077373567 -0.06175656 -0.020641051 -0.079171665 -0.027740665 -0.17021474
0.034011208 -0.10578952 0.078786135 -0.20005529 1.2316442 0.5217415 0.024529763 -0.22599806
-0.18599644 0.027735613 -0.013815504 0.10839934 0.068348326 -0.052931212 -0.044570465 -0.08684897
0.07509694 0.2630031 0.11346527 -0.053242553 -0.07516896 -0.023490466 -0.024222039 -0.28234503
0.012703998 -0.04917412 -0.09136283 0.06990808 -0.12330517 -0.04469254 0.05083121 -0.07569891
0.14143942 0.0019097759 -0.09822791 -0.005830411 0.00038884988 -0.0191608 -0.15411296 -0.042557042
0.22075708 -0.2834218 0.21050832 -0.011127176 -0.04059656 0.14154316 -0.14032239 -0.059642814
0.03509654 -0.07540248 0.051212475 0.030448189 -0.06899575 -0.034781095 -0.044475373 -0.03239363
-0.07760121 -0.09192997 -0.13718897 -0.03127769 -0.0718855 -0.113340825 0.04051511 -0.14981604
-0.018299146 -0.03184062 -0.061307337 -0.033660125 -0.008460691 0.17614622 -0.09874023 0.021301676
-0.1250644 0.06268547 -0.31477925 -0.032530483 0.1766443 0.08980031 -0.015560943 0.06694472
0.09929357 -0.12874345 -0.04310955 -0.05934828 0.016423987 0.061072692 0.12658584 0.056467466
-0.034113675 0.11687756 0.05038663 -0.028031094 -0.101842284 0.04175076 -0.1367059 0.0156579
00000000: 024e f8bd 2451 4fbd e449 4ebd f0db 0cbe
00000010: 8657 743d 0ac8 853d 6d84 9d3d 821a 8938
00000020: e1f5 c9bd bc68 10bc f6f2 66bd d54a 06be
00000030: a7c3 3cbd 5c0e 723d 1a99 93bb f9eb 883d
00000040: 9bdd f2bc bde8 9ebd 5248 bbbd 3dff 263d
00000050: 84ff 933a 65c8 c8bd e1f4 6f3c 5a5d b43a
00000060: 2584 27bc 00e9 d93d 1475 6fbd b05f c23a
00000070: a6f5 d83c 9044 153c eceb 083e d897 af3b
00000080: 9eeb ccbd f8d3 2e3d 3556 ebbc d498 a4bd
00000090: e956 18be 03f1 50bd 297f 5a3d 7e23 85bc
000000a0: 7004 213d 8e22 13bd 9563 73bd 2c30 d33d
000000b0: 8c26 913d 3bd9 7e3d 8673 fcbd 68f8 c43d
000000c0: e4c6 bd3c 25e6 b63f dc7c 50be d133 c23c
000000d0: 4371 32be 71be c2bd bc35 853d a01a c13d
000000e0: b4be 32bd 8499 dcbd ebb3 ad3c 5791 633d
000000f0: 1977 cb3c 2176 e83d 8e7c 093e dfb8 903d
00000100: c3fc d1bd 3aae 30be 27bc c6bb 511f a4bd
00000110: f811 8d3d cafa 64bd 0d44 fdbc d8d0 293d
00000120: add4 3e3e 4c23 c1bd 2873 a3bb 1809 1d3d
00000130: 7791 043e 852d 59bd 9c8f bf3d 6cd5 be3d
00000140: 87f5 873d 5bb8 013e a911 dcbc 976d 35bc
00000150: 0dd8 a03b f34a 843d 4a7d d2bd ef8f 88bd
00000160: 878a b0bd d495 1abd 7645 c73d f208 f8bc
00000170: 6454 ce3c fe46 173d 5a60 f43c 9c1c 4a3d
00000180: 0908 0cbd 3617 91bd d7d6 01be 74a1 d4ba
00000190: ed3b dcbc 4dc2 8b3d 84f5 f63b 5e19 4c3d
000001a0: 0914 9bbc 4dd9 393d df3f 163e 77ba 053d
000001b0: 40fa 2e3d ffbc c3bd 36f6 a9bc 4b56 52bd
000001c0: 1e1f 34bc 7df7 d73c 9c46 4dbd 9e4c 0bbe
000001d0: 3d22 a9bc 2d3a 343d 4c8c ab3d 78ec 85bd
000001e0: 8798 bf3d ad00 923d 973c 0f3d 8917 123d
000001f0: d800 4b3e 6dc4 00be 8b71 153d 39b9 b83d
00000200: af68 033d abe5 993d 712f 24be f9aa af3c
00000210: aec0 d2bd 6518 1fbd ab04 83bd 28ff 10bc
00000220: 2666 f93c c75e 22be bf69 11be e8cb 15be
00000230: a3ae e3bd 38b3 ddbd 0bbb 18be 53fb 59bb
00000240: c9ba 29bd f87c f6bd b911 bdbd f01b 2dbe
00000250: 50b8 6d3e f215 1ebe ced4 c238 15df 1f3e
00000260: d2d1 84bd 11cd 263e a789 fd3b 72f4 7cbd
00000270: 6c17 a9bc c124 a2bd 6440 e3bc c64c 2ebe
00000280: 564f 0b3d 2da8 d8bd a05a a13d 4bdb 4cbe
00000290: 84a6 9d3f da90 053f a4f2 c83c 096c 67be
000002a0: da75 3ebe cc35 e33c 6c5a 62bc 7900 de3d
000002b0: 35fa 8b3d 66ce 58bd 858f 36bd dfdd b1bd
000002c0: 6dcc 993d 58a8 863e 7b60 e83d dd14 5abd
000002d0: 2ff2 99bd 146f c0bc 4c6d c6bc 878f 90be
000002e0: 6e24 503c cd6a 49bd 6f1c bbbd f82b 8f3d
000002f0: 6c87 fcbd 860f 37bd 6334 503d 0808 9bbd
00000300: 7fd5 103e 7251 fa3a b72b c9bd 080d bfbb
00000310: 8cde cb39 1cf7 9cbc cacf 1dbe 4b50 2ebd
00000320: 250e 623e aa1c 91be 7e8f 573e c24e 36bc
00000330: 9448 26bd b1f0 103e acb0 0fbe 064c 74bd
00000340: 64c1 0f3d 9e6c 9abd 2cc4 513d 7b6e f93c
00000350: a54d 8dbd 9f76 0ebd cf2b 36bd 2faf 04bd
00000360: 62ed 9ebd c845 bcbd 447b 0cbe 091d 00bd
00000370: b438 93bd 3c1f e8bd 2cf3 253d 6069 19be
00000380: 17e8 95bc 4f6b 02bd 671d 7bbd 33df 09bd
00000390: b69e 0abc ad5f 343e 5138 cabd da80 ae3c
000003a0: e210 00be 3d61 803d bf2a a1be af3e 05bd
000003b0: 3ee2 343e 3ae9 b73d 53f3 7ebc 501a 893d
000003c0: 6d5a cb3d 53d5 03be a493 30bd 2f17 73bd
000003d0: 998b 863c 5c27 7a3d b89f 013e 6e4a 673d
000003e0: c8ba 0bbd 815d ef3d 3662 4e3d 77a1 e5bc
000003f0: b092 d0bd d802 2b3d a2fc 0bbe ff44 803c

val_conv1.bias f4 [2]
0.42387787 -0.19073498
00000000: 8506 d93e 0850 43be

val_fc1.weight f4 [64, 72]
-0.0106749 -0.07523959 -0.09387629 -0.10627625 0.065745056 0.072472334 -0.13576747 0.05625363
-0.050563566 0.016727708 0.05002329 -0.015431436 -0.06602223 0.026641525 0.020766957 -0.052481335
-0.09464242 -0.09184828 -0.062474128 -0.18697691 0.08154488 -0.09882335 -0.014222341 0.042833343
-0.11173005 -0.04717483 -0.009169601 0.0056095854 -0.038927436 -0.15551908 0.08914945 -0.0785654
-0.050534826 0.027832795 -0.0044659744 0.07384646 -0.010491328 -0.052737437 -0.11440424 0.08279634
-0.016561655 0.11895613 0.1623593 0.042568885 0.055383213 0.07483079 0.0943462 0.08842251
-0.1236651 -0.07912899 0.14988774 -0.09146297 0.027343657 0.036912236 -0.1378952 0.019073902
-0.047656346 -0.030349799 -0.061665606 -0.07139714 0.040619984 -0.12425563 0.00811329 0.065872885
0.07903229 0.13006751 0.018262235 0.053513717 0.09155748 0.051099103 0.21161304 0.20314938
-0.0008997137 -0.0365163 -0.13466418 -0.08141469 -0.17402048 -0.12313239 -0.07104219 0.02580447
0.06855836 -0.017425278 -0.051173244 -0.09964362 -0.027396448 -0.0863601 0.1345857 -0.22203708
-0.050928693 0.009451562 -0.139783 -0.04910334 0.0039013328 -0.04657106 -0.093863994 -0.081794925
-0.02370387 -0.11912678 0.12098705 0.0009850201 -0.0010810437 -0.04159041 -0.037753705 0.039878104
-0.0067189517 0.005323317 -0.0780717 0.044351254 -0.10656386 -0.07284495 -0.06361145 0.0857185
0.11300363 0.036841527 -0.09678526 0.00849564 -0.11715369 -0.07274509 0.010448473 0.045645334
-0.18443233 0.054974828 -0.05409501 -0.021363268 -0.047952462 0.025274877 -0.07286159 0.07784673
0.0185741 0.05238689 0.013478579 0.046809696 0.14413081 0.01386107 -0.09229434 -0.051974166
-0.04179164 -0.067341685 -0.061852593 0.03863232 -0.055408943 -0.09345873 -0.083917566 -0.0027290655
-0.028952865 0.013067766 0.049979087 0.11224353 0.058233976 0.08032729 0.060199376 0.019344091
0.010892105 -0.062190592 0.0455158 0.08838507 0.0788559 0.010813904 -0.07088741 -0.043478273
0.06721089 -0.0091937035 -0.08205077 -0.16612802 -0.04273462 -0.07894159 -0.029471904 -0.022765713
-0.04521998 -0.12267896 0.022433992 0.018397903 0.050361026 -0.051658764 -0.08347137 -0.16926718
-0.17191927 0.088212095 -0.096910894 -0.016452655 0.017607624 -0.024377039 -0.022348836 -0.06670315
0.019568093 0.023316044 -0.011267259 -0.048042353 0.04839596 -0.0011953169 0.0030590557 -0.12615779
0.15463611 -0.08279768 0.0013276903 0.035212647 -0.09240044 0.04732524 0.111626565 0.102287255
0.0036535957 -0.009472782 -0.007644444 0.027827645 0.06009838 -0.0030453852 0.08000271 0.05739745
-0.11610744 0.041536305 0.05540487 0.12015011 0.14324999 -0.025319273 -0.20388538 -0.06930611
0.037620865 -0.06979215 -0.0064935237 -0.05598127 -0.04577175 -0.018967682 -0.12864225 -0.090787485
-0.053026993 -0.041502293 -0.052871842 -0.008353913 -0.019727062 -0.06917898 0.027314806 -0.09900398
-0.06605809 0.026052877 -0.014717456 -0.050493244 0.060974892 0.005023155 0.047483377 -0.08044765
-0.022350792 -0.052352466 -0.06564583 -0.081550345 0.029739197 0.0664983 -0.010116012 -0.075995244
-0.023179973 0.04793426 0.051479667 0.017226022 -0.04089012 0.07906471 -0.01600225 0.07177375
00000000: c7e5 2ebc 3717 9abd 3642 c0bd 5da7 d9bd
00000010: 58a5 863d 606c 943d a106 0bbe 356a 663d
00000020: be1b 4fbd 8c08 893c 39e5 4c3d 22d4 7cbc
00000030: aa36 87bd 543f da3c 771f aa3c abf6 56bd
00000040: e3d3 c1bd f31a bcbd dfe4 7fbd e076 3fbe
00000050: 0101 a73d e663 cabd d204 69bc 0472 2f3d
00000060: b9d2 e4bd 653a 41bd 183c 16bc 9dd0 b73b
00000070: 6072 1fbd 6540 1fbe fd93 b63d e5e6 a0bd
00000080: 9bfd 4ebd 9a01 e43c 4f57 92bb d03c 973d
00000090: d2e3 2bbc 3603 58bd c54c eabd 2191 a93d
000000a0: 4fac 87bc 469f f33d 8441 263e b65c 2e3d
000000b0: 82d9 623d e340 993d 9538 c13d dc16 b53d
000000c0: 2144 fdbd 610e a2bd 2c7c 193e f050 bbbd
000000d0: ceff df3c 4931 173d 6634 0dbe df40 9c3c
000000e0: 4d33 43bd 24a0 f8bc 1395 7cbd aa38 92bd
000000f0: 2461 263d bc79 febd 9bed 043c 5de8 863d
00000100: aedb a13d 6b30 053e af9a 953c 3331 5b3d
00000110: 7d82 bb3d 4b4d 513d 17b1 583e 6406 503e
00000120: c4da 6bba 1e92 15bd 68e5 09be bfbc a6bd
00000130: 6d32 32be d62c fcbd 917e 91bd e563 d33c
00000140: 5368 8c3d 75bf 8ebc 099b 51bd f411 ccbd
00000150: 846e e0bc 90dd b0bd d5d0 093e b05d 63be
00000160: 9b9a 50bd b9da 1a3c 4623 0fbe 9520 49bd
00000170: 81ad 7f3b 4cc1 3ebd c43b c0bd 1984 a7bd
00000180: 9e2e c2bc bef8 f3bd 0fc8 f73d ca1b 813a
00000190: cfb1 8dba b55a 2abd a1a3 1abd 3957 233d
000001a0: a72a dcbb 386f ae3b 0ee4 9fbd a9a9 353d
000001b0: 273e dabd bc2f 95bd b846 82bd 2e8d af3d
000001c0: 726e e73d 24e7 163d 5a37 c6bd 4c31 0b3c
000001d0: 46ee efbd 61fb 94bd 1230 2b3c 9af6 3a3d
000001e0: d4db 3cbe 492d 613d bb92 5dbd 0502 afbc
000001f0: cd69 44bd 420d cf3c 7538 95bd 1b6e 9f3d
00000200: b628 983c a393 563d 42d5 5c3c 86bb 3f3d
00000210: 0797 133e 8b19 633c d104 bdbd dde2 54bd
00000220: b62d 2bbd 70ea 89bd 2559 7dbd ec3c 1e3d
00000230: 7df4 62bd 4a67 bfbd f9dc abbd 1fda 32bb
00000240: 8f2e edbc 2f1a 563c dfb6 4c3d f0df e53d
00000250: c086 6e3d a282 a43d 9f93 763d 8077 9e3c
00000260: cd74 323c 90bb 7ebd c76e 3a3d 3b03 b53d
00000270: 347f a13d cd2c 313c 6b2d 91bd 4616 32bd
00000280: dda5 893d 30a1 16bc 3c0a a8bd 771d 2abe
00000290: 7f0a 2fbd 21ac a1bd 106f f1bc 297f babc
000002a0: 9638 39bd 1b3f fbbd 7ec7 b73c 33b7 963c
000002b0: 5d47 4e3d 2498 53bd 0af3 aabd 6054 2dbe
000002c0: 9b0b 30be 8ba8 b43d 3879 c6bd b8c7 86bc
000002d0: dd3d 903c 5bb2 c7bc e814 b7bc a99b 88bd
000002e0: 444d a03c 4a01 bf3c 4f9a 38bc 0fc8 44bd
000002f0: d83a 463d 2eac 9cba 707a 483b 822f 01be
00000300: ee58 1e3e d491 a9bd e505 ae3a 233b 103d
00000310: 713c bdbd 1cd8 413d 789c e43d fb7b d13d
00000320: 2a71 6f3b ba33 1bbc 3e7e fabb cdf6 e33c
00000330: b829 763d 1695 47bb 76d8 a33d 9719 6b3d
00000340: bdc9 edbd f921 2a3d 38f0 623d 4311 f63d
00000350: 20b0 123e 5d6a cfbc 54c7 50be 5df0 8dbd
00000360: 5618 1a3d 30ef 8ebd a0c7 d4bb 9e4c 65bd
00000370: 297b 3bbd 1d62 9bbc cbba 03be caee b9bd
00000380: d532 59bd 4ffe 29bd 2590 58bd dade 08bc
00000390: a69a a1bc b6ad 8dbd 4dc3 df3c 99c2 cabd
000003a0: 7749 87bd d86c d53c 7c21 71bc 01d2 4ebd
000003b0: cfc0 793d 4799 a43b ee7d 423d bdc1 a4bd
000003c0: 0219 b7bc 8a6f 56bd 5271 86bd de03 a7bd
000003d0: 9e9f f33c 4330 883d a1bd 25bc 65a3 9bbd
000003e0: ede3 bdbc b756 443d 58dc 523d 961d 8d3c
000003f0: 667c 27bd aeec a13d 2717 83bc 1efe 923d
