initial.model (torch, 422383 bytes, 15 tensors)

conv1.weight f4 [32, 4, 3, 3]
00000000: d498 1c3d 0475 22bd f034 3b3d 007a 0bbc
00000010: 3ad0 913d 3c86 223d 98ec 9cbc 47fa 09be
00000020: d4dc 1b3d 4c19 17be 6871 b33c 7079 353c
00000030: 041e 16bd b98d 0b3e 703c 363c 288b 8d3d
00000040: 5273 903d 035d c9bd 6638 83bd 1b22 243e
00000050: 062a 27be 5076 39bc 9067 58bc 6a1c f23d
00000060: 38cd 81bc 20c2 333d 0015 03bc e620 bfbd
00000070: e376 c1bd ced4 a5bd cc08 1bbe f084 ddbd
00000080: 34aa 203d aea5 e03d d084 063c b676 9cbd
00000090: a802 963d 4e07 83bd 3c39 17bd 161f bbbd
000000a0: ec5b 56bd c323 1ebe baa4 913d feb8 843d
000000b0: bc99 073d 9896 a73d feaa 903d 60a0 f13b
000000c0: a898 903c 5084 503c 7a22 b63d 224a e53d
000000d0: 8620 f53d b6d6 c53d cc70 26bd 2020 f3bb
000000e0: b0bb 0abd 8290 c63d a0a1 973c 55f5 1d3e
000000f0: 261f ad3d a0dc 11be b4b3 473d 3dfd 233e
00000100: f997 173e c0a5 2bbb 307a 623d 1a18 20be
00000110: 80a2 59bd 9272 a63d 9478 1bbe 73af 143e
00000120: 1678 e0bd e0df 573d e0c1 cebb 6098 f03c
00000130: b847 843c 748b 1fbe 0ca3 12bd b6c2 d7bd
00000140: cd17 113e 1898 a7bc 92ef 29be 5457 253d
00000150: 1e3b 943d 00cd 98bd 4014 80bc da8f 933d
00000160: 4061 d4bd 366f b4bd 68b5 83bc e6b3 efbd
00000170: 6ac8 d13d 3058 5f3c a238 cc3d 1abc b63d
00000180: b886 03be 48c0 d4bd 4677 e9bd e068 5bbd
00000190: 8c76 79bd 38ff dbbc 601a 25be da24 903d
000001a0: 02a4 c13d 145c 583d 16e7 d83d c135 003e
000001b0: 5a7a 28be 983d ce3c f74f 1e3e b35e f7bd
000001c0: f3fa 97bd 40cd 0fbc 7b56 d4bd 94ab 00bd
000001d0: 98c1 c9bc 1f0f 183e 80b3 2bbc 7218 b93d
000001e0: 36f3 f93d 6212 983d f36a 14be c2d4 ff3d
000001f0: 9a17 e13d 4eb0 f4bd 706b 73bd 5652 e83d
00000200: ebe7 25be 6495 15be 6e57 e7bd e4b7 543d
00000210: c863 8bbd 1c35 18be a24f 843d 82a7 ac3d
00000220: 80b3 7f3d f838 12be 632e 263e 9007 4ebc
00000230: b26f 22be f889 cdbc 7ef1 de3d a631 9d3d
00000240: 8077 e9ba 46a0 f03d 77b6 1bbe 1ed5 ec3d
00000250: a969 293e 838d cfbd c06d 123d 382b dcbc
00000260: 3813 10be 8083 bfba fcc6 64bd 26c6 11be
00000270: 10b8 f8bd 0055 6e3b 2538 1e3e ac6a 743d
00000280: 061a e3bd 166f eb3d d024 603c 0fc4 26be
00000290: b087 013c b61d db3d aeb4 c8bd e048 fbbb
000002a0: db0e aabd 6892 06be 3ef3 c1bd f81a 893c
000002b0: 82a4 dc3d a0b5 fdbc 937b 19be 80ff baba
000002c0: ec6e 14be 9067 203c 7a12 fd3d 00ad 913d
000002d0: 98c5 d0bd a4a9 16bd c0ad 883d 4032 393d
000002e0: c34f 20be b800 c7bd 7c6e 71bd 90df 7a3d
000002f0: bd7d 183e 501a 983d 26f1 803d 2cd2 10be
00000300: aadd dc3d 247d 743d 0085 5bbd 73c6 a3bd
00000310: 9013 423d bb04 b9bd b08f 8a3d 7185 023e
00000320: 3b38 e1bd 7eeb d4bd 03ce 8dbd e71e 12be
00000330: 7895 9cbc f698 d43d 1081 7f3d fcfd 5bbd
00000340: a87f a9bc e36e 94bd e3c4 09be 8053 3abd
00000350: f073 3c3c 3819 adbd feb7 ffbd e468 473d
00000360: 881d c93c 7059 54bd fceb 3a3d 5fbb 1d3e
00000370: 001c 153c 93f1 e9bd d1d1 1d3e 2aa2 f53d
00000380: 4050 82bc 7e2e 9abd 4806 90bd a1d1 143e
00000390: fe4e b23d a687 afbd 00f8 d93b 3406 0c3d
000003a0: 5476 343d 007d 1abc 1ba5 b2bd e0fc a7bb
000003b0: 5c93 3cbd fc2c 65bd de34 a9bd eb81 a5bd
000003c0: 9ed7 a0bd 1880 863d e449 10be 2653 22be
000003d0: 43f9 113e 7c13 753d 6aca bc3d 12e5 943d
000003e0: ce31 82bd 0e60 d6bd 66ac e8bd 5052 2cbc
000003f0: d450 293d 23de 1fbe 920a 03be ea21 c03d
0.038231686 -0.039662376 0.045704782 -0.008512974 0.07119794 0.039678797 -0.019155785 -0.1347438
0.038052395 -0.14755744 0.021904662 0.011076316 -0.03664972 0.13628282 0.011122808 0.069113076
0.070532456 -0.09832194 -0.064072415 0.16028635 -0.16324624 -0.011319712 -0.013208285 0.11821826
-0.015844926 0.043886304 -0.008000612 -0.09332447 -0.09446504 -0.0809723 -0.15140074 -0.108163714
0.03922482 0.10969101 0.008210376 -0.0763983 0.073247254 -0.06397878 -0.036919817 -0.091367885
-0.052333757 -0.1544333 0.07111497 0.06480597 0.033105597 0.0818302 0.07063864 0.0073738545
0.017650917 0.012726858 0.08893295 0.1119578 0.11969094 0.096600935 -0.040634915 -0.007419601
-0.0338704 0.096955314 0.018509686 0.15425618 0.08453207 -0.14244318 0.048755363 0.16014571
0.14804067 -0.0026191324 0.05529231 -0.15634194 -0.053133488 0.08127321 -0.15182716 0.14520054
-0.109604046 0.05270374 -0.006309733 0.029369533 0.01614748 -0.15580541 -0.035800025 -0.10535185
0.14169236 -0.020458266 -0.16595295 0.040366486 0.07237838 -0.07460976 -0.015634656 0.07205172
-0.103701115 -0.08810274 -0.016077712 -0.11704235 0.10243304 0.013631865 0.09971739 0.08922596
-0.1284436 -0.10388237 -0.11399703 -0.053566813 -0.06090407 -0.026855096 -0.16123343 0.07038279
0.0945511 0.052822188 0.10590951 0.12520505 -0.16452923 0.025175855 0.15460192 -0.12078609
-0.07420912 -0.008776963 -0.10368057 -0.03141363 -0.024628446 0.14849518 -0.010479808 0.09037866
0.12204592 0.07425381 -0.14493923 0.12491752 0.1099083 -0.1194769 -0.059428632 0.11343829
-0.16201751 -0.14607769 -0.11295973 0.051933184 -0.06806141 -0.1486401 0.06460501 0.08430387
0.062427044 -0.14279544 0.16228633 -0.012575045 -0.15862921 -0.025090203 0.10885905 0.07675485
-0.0017812103 0.1174932 -0.15206324 0.115640864 0.16544212 -0.10134413 0.035749197 -0.026876077
-0.14069831 -0.0014611334 -0.05585383 -0.14235744 -0.12144482 0.0036366582 0.15451105 0.059672043
-0.11088948 0.11495797 0.013680652 -0.16285728 0.007905886 0.10699026 -0.09800087 -0.0076685995
-0.08303615 -0.13141787 -0.09470223 0.016736493 0.10773565 -0.030970395 -0.14988546 -0.0014266819
-0.14495438 0.009790316 0.1235704 0.07113075 -0.10193938 -0.036782876 0.06673765 0.045213938
-0.15655427 -0.09716934 -0.058943257 0.061248362 0.14891715 0.07426894 0.062959954 -0.14142674
0.107844666 0.059689656 -0.053593636 -0.079968356 0.047381938 -0.090341054 0.067656875 0.12746216
-0.10997053 -0.10396479 -0.06924059 -0.14269601 -0.019114241 0.103807375 0.062378943 -0.053709015
-0.020690754 -0.072477125 -0.13454013 -0.045489788 0.011502251 -0.08452076 -0.124862656 0.048684016
0.024550214 -0.051843107 0.04563521 0.15403508 0.009100914 -0.1142303 0.1541207 0.11993821
-0.015907407 -0.07528399 -0.07032448 0.14533092 0.08706473 -0.08570795 0.0066518784 0.034185603
0.04405816 -0.009429216 -0.087228976 -0.0051265806 -0.04603897 -0.055951104 -0.08262037 -0.080814205
-0.07853626 0.06567401 -0.14090687 -0.15852031 0.14255242 0.059833035 0.09218295 0.07270254
-0.06357156 -0.1046754 -0.113610074 -0.010517672 0.04133685 -0.15612082 -0.12797001 0.093814686

conv1.bias f4 [32]
00000000: 78a0 8dbd 0c06 31bd 2a84 0abe d82a 87bc
00000010: d206 ed3d b234 bc3d 04c9 01be 6ff4 023e
00000020: 80ab c8bc bcda 24bd 1ee0 f63d f0de 733d
00000030: 480d a7bd 9097 20be 386d f8bd 0328 0e3e
00000040: d6f0 afbd 4a4d a93d b69e 6ebd a31b 023e
00000050: 722b f53d 063b 913d d09e 7bbd ca9c 953d
00000060: 26a9 c93d f3db 95bd 604b 41bd 1a6a d43d
00000070: b186 213e 6863 b6bd 807c 423d 8a1c d53d
-0.069153726 -0.043218657 -0.13526979 -0.016499922 0.115735665 0.09189738 -0.12674338 0.12788557
-0.02449584 -0.040247664 0.12054466 0.05953878 -0.0815683 -0.15682817 -0.12130207 0.13882451
-0.08590858 0.08266695 -0.058256827 0.12705855 0.11971177 0.07091336 -0.061430752 0.07305296
0.09846716 -0.073173426 -0.047191024 0.103718 0.15774037 -0.08905679 0.047482014 0.10405834

conv2.weight f4 [64, 32, 3, 3]
00000000: 0ba1 3c3d 8ca1 2c3c 2ff3 503d 340a 55bd
00000010: d8f1 64bd 38aa d43b 40cf e0bb 1258 eb3c
00000020: 0c2f 533c 58e5 853b d070 0cbd 1076 e3bb
00000030: f86a bf3b b4f4 423c 78f8 b8bc d7a6 0d3d
00000040: 4290 90bc 65a1 703d 2825 b33b 7379 543d
00000050: 284b c63b 5dfb 3dbd a8cc 9c3b e52e 183d
00000060: 3a28 f93c a7bf 273d 1ce1 10bc 1466 493c
00000070: 8089 f439 54cd b4bc c6d5 9bbc a1cf 6a3d
00000080: 13a3 00bd dc7c 06bc e76d 5a3d 0f60 05bd
00000090: 3401 51bd ef5b 52bd 99d4 5d3d 6eed d8bc
000000a0: 558c 313d 4cef 5fbc 2c55 1f3c 18d3 e1bb
000000b0: d594 54bd b044 4bbd b0fb 32bd 06d0 b53c
000000c0: 40aa 42bd c71f 463d 7a68 24bd 9a53 b53c
000000d0: 008f c739 7fb6 3c3d f545 18bd 7286 f53c
000000e0: 8c9c 7a3c fe26 f9bc 4435 2f3c c2c1 f53c
000000f0: e4fb 283c d0db 2cbd eff2 543d 6049 03bb
00000100: 1469 bbbc a9d3 5e3d 622e b83c 38a5 b8bc
00000110: be5d 38bd 2728 5b3d 56ed f33c ac86 d8bc
00000120: 6c61 733c 69b7 193d 1c1c 133c 8c17 153c
00000130: 2ceb 3cbd d604 67bd f038 4fbb b880 2cbd
00000140: 1d92 5bbd a00d c6ba 14fa e5bc 8daa 0c3d
00000150: c5c6 45bd f424 e2bc 641b 2dbd 1011 3f3b
00000160: a200 fa3c e7e0 133d f25e 9d3c bead 66bd
00000170: 87c2 04bd 02cd a1bc 1097 433b 2253 86bc
00000180: dfd3 313d 5b5e 373d da97 a7bc cad4 dabc
00000190: 672a 263d bc0e 13bd 605f 64bb b21c 48bd
000001a0: 2b4f 4d3d 0629 a93c 5958 25bd c059 443a
000001b0: df70 393d 648f 553c c301 383d 48ba 14bd
000001c0: 1c33 413c b876 f9bc 981a 8bbc aebc cd3c
000001d0: 2817 26bd a482 2bbc 2ef7 fb3c de64 14bd
000001e0: 0ced b0bc 616f 2d3d 2738 543d 18bd 44bd
000001f0: 1f1d 383d 90c7 09bd 10e0 163b 2a84 06bd
00000200: 33fd 53bd ca0c debc 007a b739 a0ce b6ba
00000210: 90b4 463b 10bf 573b 859c 673d 6ca7 6a3c
00000220: b32f 68bd 4db3 263d cb1a f1bc ef35 4f3d
00000230: aa5f 31bd 86f7 57bd cdcf 303d 66de 8a3c
00000240: f35a 67bd 50a8 0e3b e3dd 0d3d 64e7 513c
00000250: 05d4 103d 88ae d23b 571c 343d 57f0 18bd
00000260: 9135 623d 8002 4ebd 1832 a03b f6f2 df3c
00000270: dfe3 673d 2c09 48bc a822 0dbc 9266 cebc
00000280: c822 a83b cb09 59bd c28d c83c ad4a 66bd
00000290: 2665 01bd 3e31 a4bc f040 7f3b bad7 40bd
000002a0: a65d ea3c 464b a6bc cd4f edbc 7f82 5a3d
000002b0: d1df 253d 67ac 3fbd 9ca9 d9bc a2ae 8ebc
000002c0: 6c04 71bc 3cac 463c 507d bebb f798 6a3d
000002d0: 3b25 6e3d f0f6 dabb 684e 963b d42f 97bc
000002e0: e8f4 c8bb feef fe3c 9e18 dfbc bda8 5e3d
000002f0: d2ca 91bc 421d a8bc 544a 32bd fad7 b5bc
00000300: 911f 433d 85fd 51bd 6480 c5bc 78a2 1cbd
00000310: 0d75 5a3d cf91 583d c3c0 523d 00fb abbb
00000320: eec1 dbbc 589c e63b 1890 96bb 7ee4 58bd
00000330: 8c52 37bd cf87 3fbd 2ed8 f93c 0c97 2d3c
00000340: 04b5 193c e0e3 92bb ba75 cd3c bd35 6b3d
00000350: b532 153d 9631 1dbd e067 b7bb a977 37bd
00000360: d346 48bd 251d 5c3d 5583 6abd 0285 bb3c
00000370: ac81 733c c53d 123d c8f0 c53b 1501 0ebd
00000380: 3438 223c 40c2 9bba 9252 49bd f08f c5bb
00000390: c449 0ebd 00c6 ee39 c36f 563d e5a8 343d
000003a0: 9839 58bc 8fa1 173d 26b9 e53c 9b91 01bd
000003b0: 0436 82bc 79f9 223d 4c37 433c 3caa 553c
000003c0: 97b7 083d 5dfe 0d3d 07f7 703d aa70 b43c
000003d0: 66f1 acbc 5ec0 b0bc e191 1a3d 4457 18bd
000003e0: 289d fcbc 8aa3 29bd 4dbe 62bd be52 e3bc
000003f0: 9f6b 6abd d630 f33c 51f8 523d 4cf5 543c
0.04605202 0.010536563 0.051013168 -0.052011684 -0.055894703 0.006490018 -0.0068606436 0.028728519
0.012889635 0.004086178 -0.034287274 -0.0069415644 0.005841609 0.011899162 -0.022579417 0.03458294
-0.017646912 0.058747668 0.005467076 0.051873636 0.00605144 -0.046382297 0.004785139 0.037154097
0.03041469 0.04095426 -0.008842733 0.012292404 0.00046641752 -0.022070564 -0.019022834 0.057326917
-0.03140552 -0.00820848 0.053327467 -0.03256231 -0.051026538 -0.051357206 0.054157827 -0.026480403
0.04334672 -0.013667893 0.009724896 -0.0068916194 -0.05189975 -0.049626052 -0.04369706 0.02219392
-0.047525644 0.04837015 -0.0401387 0.02213459 0.0003806278 0.04607248 -0.03717609 0.029971335
0.015296113 -0.0304141 0.010693852 0.029999617 0.010313962 -0.042201817 0.051989492 -0.0020032749
-0.022877254 0.054401074 0.022483055 -0.02253972 -0.045011275 0.05350509 0.029776257 -0.026431404
0.01485477 0.03752843 0.00897887 0.009099852 -0.046122715 -0.056401096 -0.003161963 -0.042114943
-0.05360614 -0.0015110262 -0.028073348 0.034342337 -0.048285265 -0.027605511 -0.04226245 0.0029154457
0.03051788 0.036103155 0.019210313 -0.056318037 -0.03241208 -0.019751076 0.002984468 -0.016397063
0.043414947 0.04476772 -0.02045815 -0.026712794 0.04056778 -0.035902724 -0.0034846887 -0.04885549
0.05012433 0.020649444 -0.040367458 0.00074901804 0.045273658 0.013034675 0.044923555 -0.036310464
0.011791971 -0.030452117 -0.016980454 0.025114384 -0.040549427 -0.010468159 0.030757513 -0.036229007
-0.021597408 0.042342547 0.051811364 -0.048031896 0.044949647 -0.033637583 0.0023021735 -0.032840885
-0.05175514 -0.027105708 0.00034995377 -0.0013947077 0.0030320026 0.0032920279 0.056545753 0.014322143
-0.056686115 0.04069834 -0.029431721 0.050588544 -0.043304123 -0.05272629 0.043166924 0.016951751
-0.05648322 0.0021767803 0.034635436 0.0128115155 0.035358448 0.006429497 0.04397234 -0.03733858
0.055226866 -0.050295353 0.004888784 0.027337532 0.0566138 -0.012209218 -0.00861422 -0.025195394
0.0051310994 -0.052987855 0.024481658 -0.05622356 -0.031590603 -0.020043012 0.0038948618 -0.047080733
0.028609108 -0.020299565 -0.028968716 0.053347107 0.04049665 -0.046795275 -0.026570134 -0.017417256
-0.014710527 0.012126025 -0.0058132783 0.057274785 0.058140974 -0.0066822693 0.0045869835 -0.018455423
-0.0061327107 0.031120297 -0.027233418 0.05436014 -0.017796908 -0.020521764 -0.043527916 -0.022197712
0.047637526 -0.051267166 -0.024109073 -0.03824088 0.053334285 0.05287343 0.051453363 -0.0052484274
-0.026825871 0.0070376806 -0.004594814 -0.052952282 -0.044756457 -0.046760377 0.03049859 0.010595094
0.009381536 -0.004482731 0.02508055 0.057424296 0.03642531 -0.038377367 -0.0055970997 -0.04479185
-0.04889567 0.053738732 -0.057254154 0.022890572 0.014862459 0.03570344 0.0060406663 -0.034669
0.009901095 -0.0011883453 -0.04915101 -0.0060291216 -0.034738317 0.0004554242 0.052352678 0.044106383
-0.013197325 0.03701931 0.028042387 -0.031633 -0.015894897 0.039788697 0.011915039 0.013041075
0.03337821 0.034666408 0.058829334 0.022026379 -0.021111201 -0.021576103 0.037736777 -0.037192598
-0.030836657 -0.04141573 -0.055357266 -0.027749415 -0.05723154 0.029686373 0.051506344 0.012997936

conv2.bias f4 [64]
00000000: 7b1d 4c3d 9c97 6d3c 3bcf 263d d778 453d
00000010: 8db9 51bd 7850 8dbc d059 05bc ab4e 39bd
00000020: b6b4 c53c f4be 533c 84de 6cbd 5eb0 bf3c
00000030: 9c7d dcbc b862 b13b 40ee 223a 3759 193d
00000040: 3631 8a3c 8035 c1b9 b2bb 8b3c f60b e63c
00000050: 285e f33b 40ad 16bd 1ec6 8c3c 944c 5a3c
00000060: 7048 2ebb 0e9f ee3c bb90 673d 3db4 15bd
00000070: 126e 0bbd 305b 1c3b a634 51bd 93fb 433d
00000080: f841 d6bb 7def 1b3d ab19 6f3d 40eb 073a
00000090: 480a 8abc aaac 0dbd 9530 003d a55b 303d
000000a0: a419 133c 3ca2 27bd ce52 ee3c a8ea 2dbc
000000b0: a8e4 ee3b 6a82 a4bc 7b3f 443d ba07 cebc
000000c0: 56ef c03c 9a10 f93c 3d4e 483d 5b1b 6cbd
000000d0: f8ad 8c3b 38df 933b cdeb 6d3d c0fb abbc
000000e0: 9edb b13c 1489 713c aa10 0abd fbb5 393d
000000f0: b43c 47bd bacf 6fbd 27c0 213d 7d71 513d
0.049832802 0.0145014785 0.040724974 0.048210945 -0.051202346 -0.017250285 -0.008139089 -0.04524104
0.024134021 0.012923945 -0.057829395 0.023399528 -0.026915364 0.0054133795 0.00062153116 0.037438598
0.016869169 -0.0003685169 0.017057274 0.028081875 0.007426996 -0.036786318 0.017184313 0.013323922
-0.002659347 0.029128578 0.05653451 -0.03654884 -0.034040518 0.0023858063 -0.0510756 0.04784734
-0.006538626 0.03807019 0.05837409 0.0005184896 -0.016850606 -0.034588493 0.03129633 0.04305615
0.008978281 -0.040926203 0.029092219 -0.010615028 0.0072904415 -0.020081718 0.047912102 -0.025150169
0.023551624 0.030403424 0.04890274 -0.057643276 0.0042931996 0.0045126937 0.058086205 -0.020994067
0.021711167 0.014742155 -0.0337073 0.045339566 -0.048641875 -0.058547713 0.03948989 0.05113362

conv3.weight f4 [128, 64, 3, 3]
00000000: 86b8 e7bc 7b23 c5bc d49c 053c 24f0 00bc
00000010: 204b b4ba 18d2 df3b c085 c5bc 636a bcbc
00000020: b825 edbc c6fd aabc 5297 16bd 29ab 173d
00000030: 5c29 32bc 5bff e2bc 56d9 acbc 7014 063b
00000040: da5c e23c c033 5abc 9455 7b3c 360c 90bc
00000050: dff9 203d c412 5e3c 021c c93c 0398 1cbd
00000060: fa72 b33c 0596 173d b62d bdbc b436 0b3c
00000070: 6048 4b3c 3606 9ebc 90dd 52bc c05d 9e3c
00000080: 866c 81bc dcd5 1c3c c03f d23b 0f20 263d
00000090: c6ca 64bc cccc 513c 0c2b 23bd 82a9 b63c
000000a0: 0b65 0e3d fb6f 0d3d 40da f3bb 789a ae3b
000000b0: 689e 0ebd 0afc d83c 2074 f33b 8238 e73c
000000c0: 80a6 04bc e0fe b9bb 50c4 1fbc ef46 0a3d
000000d0: c095 013a eaac c43c 6003 d5bb 1607 ac3c
000000e0: 86ba aebc 76de d2bc e631 f83c ce23 cbbc
000000f0: 8228 bf3c e219 9e3c d83a de3b 6ecc 953c
00000100: 7c0b 06bc 36b2 09bd 8f2b 13bd 33a1 1fbd
00000110: ba63 08bd 5c47 7cbc 3c8c 373c c627 41bc
00000120: 4c72 2bbc a269 eb3c b602 d3bc 212c 0c3d
00000130: da49 1bbd dad3 d73c 02e4 c63c b46e 0cbc
00000140: 700a 6ebb a692 19bd 0e96 eebc 0212 ae3c
00000150: 120a 983c 3bf5 c3bc b803 b9bc e6f9 ddbc
00000160: 985d 80bb 6653 b7bc 001d a13b f01f 10bd
00000170: a0a7 aa3c 20e5 f6bb 1013 14bb a903 0f3d
00000180: 9b4f e5bc b487 01bc 34f5 0dbc b6f0 bc3c
00000190: f3c0 16bd 00e6 a33a 6e73 a8bc dac3 c83c
000001a0: 0f5e 0e3d 2014 973a 76d3 17bd 5429 1ebd
000001b0: 8e86 dabc 7c3e 773c 60bb 3ebc 060e c03c
000001c0: fb48 a6bc 20bc 953c c24d d33c 1baf 93bc
000001d0: 77ed 293d 4155 203d ac10 0abc d8ce fb3b
000001e0: 001c 86b9 8010 14bd 08b3 e33b 2f32 0dbd
000001f0: a16a 0f3d 6a37 c13c c0bc ccbb d8b1 97bc
00000200: f0c6 41bb 305e 7c3b 605d f8bc 4860 86bb
00000210: 0a64 cb3c 6082 82bb 0d60 1d3d e7ba 01bd
00000220: c87d 09bd 7e80 d0bc f3a0 febc a0a2 d9bb
00000230: 5b17 06bd c8b5 9e3b 1ebb d5bc 2e12 19bd
00000240: e0d7 de3b 80ed ab3b 802e b63b ce54 06bd
00000250: eee6 de3c a892 d9bb f447 2d3c 5f66 0c3d
00000260: cc4d 09bc 6391 dcbc e7ad 1c3d 120b d93c
00000270: f2c2 0fbd 6ba7 1e3d c21c f33c 404b e1bc
00000280: 4233 f83c aec5 df3c 38d6 dcbc 7099 00bd
00000290: 9ed2 debc a086 a2bb 9001 20bb e847 a63c
000002a0: b028 3ebc 78eb f8bc 7e66 f53c 4440 10bd
000002b0: 6c37 603c b600 59bc a0b3 b2bb 2030 ac3a
000002c0: 3a0a 993c a660 d8bc a55d 153d 74c9 5c3c
000002d0: 7011 a33c 4c18 20bd 8cf7 783c f071 02bd
000002e0: fb97 14bd 3a39 15bd 2872 91bc fa53 cf3c
000002f0: 4e1d bdbc 2221 e53c abef 093d e868 aebc
00000300: 1e6b 9abc 4f32 213d 14cd 27bd ea2b b23c
00000310: 73a3 11bd 6295 aa3c 5625 43bc 7ed2 b1bc
00000320: 2aef fa3c 6350 23bd 50b3 173b c012 35bc
00000330: 09cd 103d b7c0 1fbd 6052 aabb 0089 59bc
00000340: f088 763c e6c5 b9bc 908f 0dbc 5600 b1bc
00000350: 4f17 223d 302b 0dbb b06b 67bc 5623 7cbc
00000360: 5e7f dcbc c00f d2bb 4062 cabc 2073 e43a
00000370: 1b6d ccbc d0ee 3a3c e02f f33a 0640 aa3c
00000380: fa05 fb3c 0b12 b1bc 5706 29bd b6b6 eebc
00000390: c975 063d 807e 2a3c ce24 c23c 2636 813c
000003a0: ab58 82bc b820 e43b c632 3abc 2847 ae3b
000003b0: 6610 a4bc b5f0 253d b8b3 9a3c f7d7 163d
000003c0: c074 4f3c 40e5 06ba 7a83 fc3c 50d9 053b
000003d0: 04e1 0e3c 4e5c 9d3c 407a 0bbd 9a10 01bd
000003e0: 4048 923b 20d4 f3ba f6d4 ef3c 3e57 d83c
000003f0: b858 9bbb f919 0f3d 26d2 e9bc 18f8 0ebd
-0.02828623 -0.02406477 0.0081550665 -0.007869754 -0.0013755299 0.006830465 -0.024111629 -0.022999948
-0.02894865 -0.020872962 -0.036765404 0.037028465 -0.010874119 -0.027709654 -0.021099728 0.002045896
0.027632166 -0.013318002 0.015340228 -0.017583948 0.039300796 0.013554279 0.024549488 -0.038230907
0.021905411 0.037008304 -0.023093086 0.008496929 0.012407392 -0.019290071 -0.012870207 0.019331813
-0.015798818 0.009572472 0.006416291 0.040557917 -0.013964361 0.012805175 -0.039835975 0.022297624
0.03476433 0.03453062 -0.007441789 0.0053284727 -0.034819037 0.02648737 0.0074296147 0.028225187
-0.008096337 -0.0056761354 -0.009751394 0.033759054 0.0004943274 0.024008233 -0.0065006465 0.020999473
-0.021329176 -0.025740843 0.03029723 -0.024797346 0.023334745 0.019299451 0.006781917 0.018285956
-0.008181449 -0.03361722 -0.035930213 -0.03897209 -0.03329823 -0.015397873 0.011202868 -0.011789268
-0.010464262 0.028736893 -0.025758129 0.034221772 -0.037912227 0.026346136 0.024278644 -0.008571316
-0.003632214 -0.03749337 -0.029124286 0.021248821 0.01855949 -0.023920646 -0.022584781 -0.0270967
-0.0039174072 -0.022378635 0.004916787 -0.035186708 0.020831883 -0.007534638 -0.002259437 0.0349156
-0.02799206 -0.007905889 -0.008664418 0.023063999 -0.036805104 0.0012504458 -0.020562854 0.024507452
0.03475767 0.0011526383 -0.0370669 -0.038613632 -0.026675489 0.015090581 -0.011641353 0.023444187
-0.020298472 0.018278182 0.025793914 -0.018027833 0.04148623 0.039143804 -0.008426826 0.00768457
-0.00025579333 -0.036148548 0.0069488324 -0.034471687 0.0350138 0.023585994 -0.0062480867 -0.01851742
-0.002956804 0.0038508289 -0.030317962 -0.004100833 0.024827976 -0.003982827 0.03842168 -0.031672385
-0.03356722 -0.025451895 -0.031082606 -0.006641701 -0.032737117 0.0048434474 -0.026090201 -0.037370853
0.0068006366 0.005246818 0.0055597425 -0.03279572 0.027209725 -0.0066397972 0.010576237 0.034277316
-0.008380365 -0.026924795 0.038251784 0.026494537 -0.035098024 0.03873388 0.029676799 -0.027501702
0.03029788 0.02731594 -0.026957616 -0.03139633 -0.02720004 -0.004959896 -0.0024414994 0.02029796
-0.01160638 -0.030385718 0.029956099 -0.03521754 0.013685089 -0.013244798 -0.005453542 0.0013136901
0.018681634 -0.026413273 0.03646626 0.013475765 0.019905776 -0.03908567 0.0151957385 -0.03184694
-0.036277752 -0.03643153 -0.01775463 0.025308598 -0.023085263 0.0279699 0.03367583 -0.021290258
-0.018849906 0.03935462 -0.040967062 0.021749455 -0.035556268 0.020823184 -0.011910757 -0.021706816
0.03063162 -0.039871585 0.002314765 -0.011051834 0.035351787 -0.039002147 -0.005197808 -0.013277292
0.015047297 -0.022677373 -0.008640185 -0.021606605 0.03957301 -0.0021540634 -0.014124796 -0.015389284
-0.026916202 -0.006410569 -0.024705052 0.001742933 -0.02495437 0.011409476 0.0018553697 0.020782482
0.030642498 -0.021615049 -0.04126581 -0.029139858 0.032827172 0.0104061365 0.02369919 0.01577289
-0.01591142 0.006961908 -0.011364644 0.005318541 -0.02002735 0.04051276 0.018884525 0.036827054
0.012662113 -0.0005145855 0.030824412 0.0020423718 0.00872064 0.019209053 -0.034052134 -0.031509973
0.0044641793 -0.0018602647 0.029276352 0.026408788 -0.0047408007 0.03493688 -0.02854259 -0.03490457

conv3.bias f4 [128]
00000000: aec9 bf3c c258 933c 786a b0bb abd1 d8bc
00000010: feca 99bc 30bb 263c 2be5 bebc 6bfa 13bd
00000020: c484 16bd c110 213d 4ea3 16bd ded4 e6bc
00000030: a0d2 eeba d6c0 ffbc c601 b83c 2039 913c
00000040: 7061 6c3b b371 d9bc 903b 893c 4ef5 acbc
00000050: ce34 0cbd 13d4 f1bc fad6 853c 4dad 263d
00000060: a05f 53bc 6a7a b43c 963b a6bc 005e aabb
00000070: a8b7 a83b 3d9e 1f3d 2b87 debc e63a 61bc
00000080: adfb 013d 0688 b23c 207b f1bc 3eae 85bc
00000090: 1f69 12bd e0de 8bbb 9229 b53c 7c41 5dbc
000000a0: 8883 853b c043 6d3c debc cbbc 88e2 b63b
000000b0: ce7e d9bc 0022 6c3a 367e 75bc 0826 cbbb
000000c0: 667b cdbc 9411 543c b8bb f73b 289e c6bb
000000d0: 5ddf 1b3d a041 ccba 64f6 27bc bc93 3abc
000000e0: bc2d 00bc 561e 2ebc d01f 64bc c01b b93b
000000f0: b660 c23c 8ace bd3c 474b 073d c248 d33c
00000100: 6eec 9c3c aa96 bb3c 2283 d23c fcb2 37bc
00000110: c0af 1dbb 1010 223b c5f8 293d 30e3 7dbc
00000120: 50fd 13bc e433 23bc 649c 01bc 5302 243d
00000130: 7842 8dbb b245 c63c ba1b a53c 5a40 863c
00000140: e071 adbc b7d5 263d 4eb0 03bd f01b 6b3c
00000150: 0076 2bbc 4058 9dbc a64a 983c 20ca c5bc
00000160: f04e 52bb 2258 c63c c07b 643b 5f01 09bd
00000170: 8c22 3ebc 1caf 0dbc 0972 0f3d a457 1ebd
00000180: 105a 8cbc f015 6cbc 18d3 9bbc 801b 513b
00000190: 085f e33b 4be0 02bd 2eae a1bc 4806 9a3c
000001a0: 8c42 653c 55f9 093d f001 1a3c e768 19bd
000001b0: 8b9c 1b3d 3074 553c 181f 9fbb 9c31 6f3c
000001c0: 8876 873b 08c8 ec3b c0dd 31bb 1cc0 46bc
000001d0: e2c7 e63c 12b9 f93c a6f5 8cbc ce7a 9dbc
000001e0: 6c31 5c3c c0fd 293a 4be0 133d ec2a 7c3c
000001f0: 6eee b53c 9551 283d e133 013d 5dd4 203d
0.023411598 0.017986659 -0.005383786 -0.026467165 -0.018773552 0.010176465 -0.023302635 -0.03612749
-0.03674771 0.03932262 -0.036776833 -0.028177675 -0.001822073 -0.031219881 0.022461783 0.017727435
0.003606882 -0.026543474 0.016752034 -0.021113064 -0.034230046 -0.02952007 0.01633786 0.040692616
-0.012901217 0.022031028 -0.020292085 -0.005199194 0.0051488467 0.038969267 -0.027164062 -0.013746953
0.031734157 0.021793377 -0.029477656 -0.016318437 -0.035744783 -0.004268512 0.022114549 -0.013504382
0.0040745176 0.014481485 -0.024870332 0.005581204 -0.026549723 0.0009007752 -0.014983704 -0.006199602
-0.025083255 0.012943644 0.0075602196 -0.006061334 0.038054813 -0.0015583523 -0.010251615 -0.011387762
-0.007823404 -0.01062735 -0.0139236 0.00564906 0.023727756 0.023169775 0.033030774 0.02579153
0.019155707 0.02289899 0.025697295 -0.011212107 -0.0024061054 0.0024728812 0.04149701 -0.01549606
-0.009032562 -0.009961102 -0.007910822 0.04004128 -0.004310902 0.024203155 0.020154823 0.016388107
-0.021172464 0.040731158 -0.03215056 0.014349923 -0.010465145 -0.01920712 0.018590283 -0.024144232
-0.0032090507 0.024211947 0.00348638 -0.033448573 -0.011604916 -0.008647706 0.03502086 -0.0386578
-0.017132789 -0.014409527 -0.019021556 0.003190726 0.006938819 -0.031952184 -0.019736376 0.018801823
0.013992917 0.033685047 0.009399876 -0.03745356 0.037991088 0.01302819 -0.0048560016 0.01459923
0.004134003 0.007225994 -0.002714023 -0.012130763 0.028171483 0.030483756 -0.017206978 -0.019223597
0.0134395175 0.000648465 0.036102574 0.015391093 0.022208419 0.041093428 0.031543616 0.039265025

act_conv1.weight f4 [4, 128, 1, 1]
00000000: 5300 ad3d 2b46 823d ae3f 57bd 4bff 8dbd
00000010: 7dd6 863d 288a 8ebc 603e fcbb 4195 963d
00000020: 2d8e b0bd de60 463d e721 0abd 1082 2fbd
00000030: 8be0 41bd 5cac a33c be28 79bd b909 a63d
00000040: 80c6 4cbd 0f63 14bd 20ba b63c 94cd 98bd
00000050: 502d ccbc c78f a6bd 988c 283c ce2f 173d
00000060: 56d1 163d ccaf af3c 2afe 643d c546 98bd
00000070: 7a5a 473d 7cb4 b9bc 50d4 f2bb a4a5 41bd
00000080: 20fd 6ebc 8247 3fbd 4165 afbd fafd 97bd
00000090: edda 9f3d e010 37bb 50d4 4fbc c81e cd3c
000000a0: e4e9 be3c d090 fe3b d4d0 e63c 5a48 83bd
000000b0: 6d49 1abd 59ab 96bd b2ca 093d c243 173d
000000c0: e028 01bb 2954 8a3d 2ec4 643d d089 52bc
000000d0: befd 183d 5694 aebd d83e 7dbd b5b3 2ebd
000000e0: d240 3b3d 65b7 5bbd 4e00 84bd 028b 5b3d
000000f0: 22eb e4bc ad5b 80bd b20f 2bbd 23a6 26bd
00000100: 07e3 863d 7a17 2f3d d0db 41bc e484 b2bd
00000110: ecaf ff3c 7037 fc3c 7851 9bbc 20c9 2f3c
00000120: fe0b 23bd 5bc0 a03d 8702 913d e6c5 6cbd
00000130: ce7b 1e3d 0eb3 443d 309a 833b 1a16 2c3d
00000140: 6c31 833c 06f0 9fbd a2de 19bd f6ea 0f3d
00000150: acb7 90bd 2d60 af3d 62fa 6d3d e08b eabb
00000160: 4098 e3bb bc01 9cbd 2e22 313d 9282 603d
00000170: 159a 24bd 6874 44bc 4001 913a 527c 11bd
00000180: ec1b a73c 5ce2 e03c 8096 033a 5fd9 943d
00000190: 07c3 5bbd 8f1a 8bbd 148a 9dbc 50fc 51bd
000001a0: d036 a53c 483f 83bd ee68 433d 6a00 7dbd
000001b0: 80a9 16bc e080 963c 20a5 4dbd dcf6 e43c
000001c0: 30bb c8bc 80fc b3ba 20a4 dabb 6046 ac3c
000001d0: a995 a5bd 4b6f 993d a0fd 89bc a608 473d
000001e0: 20ce 16bb a0c4 16bc b915 4ebd 44f5 d9bc
000001f0: 9e0a 213d 8904 a2bd 8359 55bd dda6 a43d
00000200: 54b4 3abd 5001 07bc 5369 0dbd a88d 533c
00000210: 1dd9 20bd b2eb 4a3d f137 8a3d 8eb2 4d3d
00000220: 3a7a 3d3d a017 79bc ca6e 303d a696 3dbd
00000230: f323 59bd 6df3 25bd e0f9 a33c 929d 93bd
00000240: 49b4 3cbd b0a7 fd3c 0995 a63d 4f44 93bd
00000250: b8cf 6dbc b1ab b43d 6e58 31bd d093 8d3c
00000260: b25e 4a3d 573b 4abd 142f 72bd e868 d5bc
00000270: 2a8c 483d e7be b23d 3f5b 9f3d 390f acbd
00000280: 66c2 193d d74f aebd 4ab1 563d 8059 e23c
00000290: 813b 963d d616 143d 5e7d 023d 8d18 3bbd
000002a0: aef5 743d 17d8 833d 001a f1b9 9e5a 5bbd
000002b0: ab29 913d d703 b2bd 23bc 8a3d 6f3d 8c3d
000002c0: 9198 8c3d 928d 703d b0be 493c 8e35 643d
000002d0: 8a00 503d b039 9dbd 16c2 0c3d 7aec 513d
000002e0: fc7d ddbc af8d 27bd 4659 54bd 78fe 24bd
000002f0: 4488 8bbd 00df 463b e27e debc e0f2 31bc
00000300: 405f 063c 6822 68bc 31ad a83d 5f5d 5bbd
00000310: c476 94bd 91d0 a03d 00bc 75ba 1808 e73c
00000320: 0f73 4cbd f8b2 c63c d196 5ebd d763 a2bd
00000330: c8ce 723c 97fd 97bd 5f35 a7bd af0f 25bd
00000340: e076 c6bb 409d 51bb 067e 6b3d 0d26 8cbd
00000350: c268 f9bc 12bb 733d 5dfd 843d 9dc2 9fbd
00000360: 27e1 9b3d 0074 6c3c 050e 9abd 30c0 fc3b
00000370: fa57 283d acb2 89bd 82c9 afbd d6f8 353d
00000380: a0fd 7e3b 596f 823d f97a 08bd 0091 06bc
00000390: dd02 a23d 9b97 44bd 5809 87bd d003 9fbd
000003a0: 00e1 c3b9 48da 953c 0003 b33b 1057 aabd
000003b0: 4d81 65bd 3409 31bd d68d 253d 5a6c 7c3d
000003c0: a211 723d 2817 cf3c b020 8f3b f850 863c
000003d0: 8832 06bc 3035 d73b 89bb 8c3d 90f3 40bc
000003e0: 0d70 38bd c02e d93c 4047 d03c afdb 14bd
000003f0: 9045 4cbc 8c79 39bd c030 a1ba 2c24 acbd
0.084473275 0.0636104 -0.052550964 -0.06933459 0.06583879 -0.017399862 -0.0076978654 0.07352687
-0.08620868 0.048432223 -0.033723738 -0.042848647 -0.04733328 0.019979648 -0.06082987 0.08107323
-0.04999399 -0.036227282 0.022305548 -0.07461086 -0.02492395 -0.08132892 0.010287426 0.036910824
0.036820732 0.021446131 0.055906452 -0.07435373 0.04867027 -0.02266907 -0.0074105635 -0.047277108
-0.014586717 -0.046699055 -0.085642345 -0.07421489 0.07805429 -0.0027933642 -0.012684897 0.025039092
0.023304887 0.007768728 0.028175749 -0.06410284 -0.03766768 -0.07356901 0.03364057 0.036929853
-0.0019708201 0.067543335 0.055851154 -0.01285024 0.037351362 -0.085243866 -0.06182751 -0.04265185
0.045716114 -0.053641696 -0.064453706 0.053599365 -0.027944151 -0.06267486 -0.041763015 -0.040685784
0.06586271 0.042747 -0.011832193 -0.08716753 0.031211816 0.030788153 -0.018959746 0.010729104
-0.03980636 0.07849189 0.0708056 -0.05780592 0.038692288 0.048022322 0.0040161833 0.042013265
0.016014777 -0.07809453 -0.037565835 0.035136186 -0.07066283 0.08563266 0.05810011 -0.0071577877
-0.00694564 -0.07617518 0.043245487 0.05481202 -0.040186007 -0.011990644 0.0011062995 -0.03551895
0.020399056 0.027451687 0.00050196797 0.07268023 -0.05365279 -0.06792175 -0.01923088 -0.051266015
0.020167738 -0.06408554 0.04770749 -0.061767973 -0.009195685 0.018372 -0.050206304 0.027949743
-0.02450332 -0.0013731867 -0.0066723973 0.021029651 -0.08085186 0.074919306 -0.01684457 0.048592232
-0.0023011044 -0.0092021525 -0.050313685 -0.02660621 0.039316766 -0.07911021 -0.05208732 0.08039639
-0.04558213 -0.008240059 -0.034524273 0.012912191 -0.039269555 0.049541183 0.06748951 0.05021911
0.046259142 -0.015203387 0.043074407 -0.046286248 -0.0530128 -0.040515352 0.02001661 -0.072077885
-0.04607037 0.030963749 0.08133895 -0.07190763 -0.014514856 0.0882181 -0.043297224 0.017282397
0.049406715 -0.049372997 -0.05912693 -0.026051 0.048961796 0.08727818 0.07781076 -0.08401341
0.03753891 -0.08511322 0.05241517 0.027630568 0.07335568 0.03615459 0.03185784 -0.04567771
0.05980461 0.064377 -0.00045986474 -0.053553216 0.07088026 -0.08692139 0.067741655 0.06847655
0.06865037 0.058728762 0.01231353 0.055715136 0.050781764 -0.07677019 0.034364782 0.051250912
-0.027037613 -0.040906604 -0.05184295 -0.040281743 -0.068131 0.003034532 -0.027160112 -0.010861129
0.00820142 -0.014168359 0.08236159 -0.053555842 -0.07249215 0.07852281 -0.00093740225 0.028202102
-0.049914416 0.02425526 -0.05434305 -0.07929199 0.014819808 -0.07421415 -0.081644766 -0.04029816
-0.0060566515 -0.0031984597 0.057493232 -0.06843195 -0.03044546 0.059504576 0.06493638 -0.078007914
0.07611304 0.014431953 -0.07522205 0.00771334 0.041099526 -0.06723532 -0.085833564 0.04442676
0.0038908496 0.06368894 -0.0333204 -0.008213282 0.079107024 -0.047996145 -0.06593579 -0.07764399
-0.00037360936 0.018292561 0.005463004 -0.08317387 -0.056031514 -0.043221667 0.04041847 0.06162677
0.059098847 0.025279596 0.0043679103 0.01639603 -0.0081907585 0.0065676197 0.06871707 -0.01177682
-0.045028735 0.02651155 0.0254246 -0.03634232 -0.012467757 -0.04528193 -0.0012297854 -0.08405337

act_conv1.bias f4 [4]
00000000: b4d1 9abd 90e0 a9bb e00d 06bc cc32 97bd
-0.07559529 -0.0051842406 -0.008182019 -0.073827356

act_fc1.weight f4 [36, 144]
00000000: eb4e 803d 5656 743d 67ef 9d3d 07aa 883d
00000010: 60bd 533b e049 693b 073a 8b3d d851 423c
00000020: 70aa c0bc 462a febc 8eff 80bd d060 3fbd
00000030: a928 a83d 40e1 7bbd 3b59 3abd 8b9f 13bd
00000040: be17 43bd 00ae 113c 4099 e1ba 17e9 95bd
00000050: 8d87 943d 9013 9bbd 058f a43d 019d 993d
00000060: 676b 833d 80ab 72ba eae0 94bd 510f 943d
00000070: 42b0 143d 68a5 56bd 9879 12bd b100 8d3d
00000080: 4017 83bb a0e6 653b a4cd 8abc b0da 203d
00000090: 8e75 35bd 56c1 88bd 76d3 333d e8d5 3fbd
000000a0: 62fe a4bd e6b7 c5bc a090 c7bc 8029 793c
000000b0: c0f7 42bd 5eb1 78bd 3ea3 083d 7085 f23b
000000c0: 1e4a 69bd 9855 9abd 20eb 7ebd bcf4 bcbc
000000d0: b01e b43c 4041 aa3c 7096 74bd 4ed9 9abd
000000e0: 2ff1 853d 0b4c 07bd 064b acbc 04eb ee3c
000000f0: ad97 9b3d 4c19 f83c aecd 6b3d 30bc 053d
00000100: 31c2 9f3d 4027 b43b e2e7 793d dcc1 a2bc
00000110: 062a 043d ce28 7fbd 8af1 583d 184d 98bd
00000120: e8ba 073c 50b4 95bb ec61 c23c 5c61 e5bc
00000130: 3d81 903d 683d 97bd fd9e 853d 70e0 90bd
00000140: 8847 1fbd baf5 90bd 8c07 cbbc ca56 1b3d
00000150: a87a 2cbc 5eaa 503d 2ba2 54bd 5c65 a5bc
00000160: 0632 b8bc b115 933d e571 9d3d 2ed9 193d
00000170: 0444 92bd a88b 45bc 31ab 953d 1a2d 7d3d
00000180: 40dd cf3c 0044 9fb8 8684 6fbd 8289 85bd
00000190: b38f 9b3d 0457 ed3c 5819 4abd 375f 9e3d
000001a0: 1015 963b 60d2 8f3c 2672 7cbd aeb4 15bd
000001b0: 5c71 d13c b922 8f3d 20bb 6dbb 2694 203d
000001c0: 1911 863d f0e3 8f3c 23db 4dbd f9f1 943d
000001d0: 2816 223d 349e b53c b094 c03c eab8 743d
000001e0: 95cd a33d 8b09 97bd d880 2cbd 3312 35bd
000001f0: e09d 76bc 02c5 483d 808e 533c 6afa 453d
00000200: 1096 69bd db0d 48bd 93e0 41bd e32b 29bd
00000210: 2355 86bd 70d2 f3bb 3cff fcbc db1b 27bd
00000220: 4815 523c 08c6 4e3c f2ea 253d ba9a 8dbd
00000230: 80cf 623b e83b 60bd 73dc 58bd a2b5 513d
00000240: a6c4 203d fb15 993d 9d41 943d 7aa1 6b3d
00000250: 4960 aa3d 25bc 8d3d bbf9 3bbd 1e07 3abd
00000260: 8610 233d 24d0 9fbd d620 58bd 52ee 003d
00000270: 0efd 79bd eaf2 613d 2ebd 203d 2e9e 7ebd
00000280: e851 183d 40c9 7a3c 67e1 93bd f0a0 cebc
00000290: 00f1 06bc 0057 9d39 5b59 17bd 7c19 9dbc
000002a0: a0fb 62bc 3677 8dbd 2000 983c b8e2 363c
000002b0: 53fd 23bd 5e58 19bd c84c 36bc b01a bcbc
000002c0: 0036 84ba ec98 a53c 1cd8 c93c 88a4 64bc
000002d0: d0f8 cdbb 9a92 a2bd 29e7 843d f8cb 7dbd
000002e0: 98e1 4f3c e0ba 01bd c65a 1bbd 614f 823d
000002f0: 99af 893d d621 443d 2854 093d 4ee2 6dbd
00000300: cab8 1a3d 66d2 1fbd 70c2 d8bb 4a85 0f3d
00000310: 8b48 a13d 9104 8d3d 4088 b23c d043 f7bc
00000320: fb38 17bd 7625 253d a028 4cbb 33cb 84bd
00000330: 5662 133d 30d6 1cbd 4c68 843c a672 f9bc
00000340: 7647 063d fa42 593d 00da b13a fb71 50bd
00000350: f2c1 0f3d 52e9 6a3d 48a7 173c a00d 393b
00000360: 805e 3b3c b951 863d 1647 d2bc 7cee ae3c
00000370: 4b23 05bd 482b 10bd e00f ef3c 30e9 b9bb
00000380: b1ac 953d 9609 c1bc 00c4 a5bd 5615 483d
00000390: e0d8 143d e08d 26bd 58ac 44bd 7ff3 a33d
000003a0: 77f9 a53d 6674 33bd 101e d1bc e297 6b3d
000003b0: 3224 8dbd 265f 013d 0c7f ffbc 8586 953d
000003c0: e48b 94bc 493d 943d f1e0 9c3d 93c4 6fbd
000003d0: d3fe 9dbd a640 103d 6268 533d b0b0 febb
000003e0: 0720 8a3d 08ee 4a3c 88d5 37bc 00f6 db3c
000003f0: f820 413c 9d70 903d bc34 e83c cdd1 833d
0.062650524 0.05965265 0.07711678 0.06673055 0.0032308921 0.0035597011 0.06798177 0.011860333
-0.023518771 -0.031026017 -0.06298743 -0.046723187 0.0821088 -0.061494112 -0.045495253 -0.036040824
-0.047630064 0.0088915825 -0.001721181 -0.07319849 0.07252417 -0.075720906 0.08035091 0.07500649
0.0641697 -0.0009257123 -0.072694615 0.07229484 0.036300905 -0.052403837 -0.035760492 0.068848975
-0.0040005744 0.003508009 -0.01694376 0.039271057 -0.044301562 -0.06677501 0.043902837 -0.046834856
-0.08056332 -0.024135541 -0.024360955 0.015207648 -0.047599554 -0.060716026 0.033358805 0.007401161
-0.05695545 -0.07535857 -0.06223595 -0.023065917 0.02198729 0.020783067 -0.05971378 -0.07560979
0.06540143 -0.033031505 -0.021031868 0.029164799 0.07597289 0.0302855 0.0575692 0.032650173
0.07800711 0.005497843 0.061012156 -0.01986783 0.03226664 -0.062294774 0.052964725 -0.074365795
0.008284308 -0.004568614 0.023728333 -0.028000526 0.070559 -0.07384759 0.06524465 -0.07074058
-0.038886577 -0.070781186 -0.024783872 0.037924565 -0.01052729 0.050943725 -0.051912468 -0.020189933
-0.02248479 0.07181872 0.07687739 0.037560634 -0.07141879 -0.012057222 0.07308043 0.06181059
0.025374055 -7.594377e-05 -0.058475994 -0.06520368 0.07595768 0.028972156 -0.049340576 0.077330045
0.0045801476 0.01755637 -0.061632298 -0.036549263 0.02556675 0.06989045 -0.0036274865 0.039203785
0.0654623 0.017564744 -0.050257813 0.07272715 0.03957191 0.022170164 0.0235084 0.05974666
0.07998196 -0.07374867 -0.042115062 -0.04420681 -0.015052289 0.049016006 0.012912393 0.048334517
-0.057027876 -0.04884134 -0.04733331 -0.04130162 -0.06559207 -0.0074408576 -0.030883424 -0.04079805
0.012822457 0.0126204565 0.040507264 -0.069142774 0.0034608543 -0.05474463 -0.05294461 0.05119861
0.03925004 0.074748956 0.07239077 0.057527043 0.08319146 0.06920651 -0.04589246 -0.045416944
0.03981068 -0.078033715 -0.05276569 0.03147728 -0.061032347 0.0551633 0.039242916 -0.06216257
0.037187487 0.015306771 -0.072207265 -0.025223225 -0.00823617 0.00030010194 -0.03695045 -0.019177191
-0.013853937 -0.06907503 0.018554747 0.011162452 -0.04003651 -0.03743779 -0.0111267045 -0.022961944
-0.0010086894 0.02021452 0.024639182 -0.013955243 -0.0062857643 -0.07938118 0.06489403 -0.061962098
0.012688063 -0.03167236 -0.037928365 0.063627966 0.06722946 0.04788383 0.033527523 -0.05807715
0.037773885 -0.03901901 -0.0066149756 0.035039224 0.078751646 0.068856366 0.021793485 -0.030183703
-0.036919575 0.04031893 -0.0031152144 -0.0648407 0.035982452 -0.038290203 0.016163014 -0.030450176
0.032782994 0.05304239 0.0013568997 -0.05088995 0.03509707 0.057351418 0.009256192 0.002823688
0.011436105 0.06558556 -0.025668662 0.021353953 -0.03250436 -0.035197526 0.029182374 -0.00567355
0.07308329 -0.023564141 -0.08094025 0.048848473 0.03633964 -0.040662646 -0.048015922 0.080054276
0.08104222 -0.043812178 -0.02552703 0.057517894 -0.06891669 0.03158488 -0.03118851 0.07301048
-0.018133111 0.07238252 0.07660092 -0.058537077 -0.077146195 0.035217904 0.05161322 -0.0077725276
0.0674439 0.012385853 -0.011220343 0.0268507 0.0117876455 0.07052729 0.028345458 0.06436501

act_fc1.bias f4 [36]
00000000: 6ef0 03bd fcf5 97bd 5efd 3c3d 6060 febc
00000010: 0835 4e3c 308e e33b 8823 1ebd 485d 4abc
00000020: 9e1d 033d 5cc5 813c 208c 06bb d66e 68bd
00000030: 1ce9 9dbc 4404 9bbc 6b27 84bd ac70 c43c
00000040: 74eb 91bc cc2b 9ebc e875 0f3c 0f82 9fbd
00000050: 9bec 98bd 7396 4ebd 90f1 acbc b2bd 91bd
00000060: 1946 a63d 0502 a43d fef2 313d 18f7 2cbc
00000070: b826 1cbc 06d9 33bd 8aeb 5d3d c037 543c
00000080: 3be7 a5bd c031 6cbc 338d 6bbd 4f39 88bd
-0.032211713 -0.07419965 0.046140067 -0.031051815 0.012585886 0.0069444403 -0.038608104 -0.012351342
0.032010667 0.015841179 -0.0020530298 -0.056746326 -0.019276194 -0.018922932 -0.06452831 0.023979507
-0.017812468 -0.019307993 0.008756138 -0.077884786 -0.07467004 -0.05043645 -0.02111128 -0.0711626
0.08118839 0.08008198 0.043444626 -0.010556959 -0.009530716 -0.04390814 0.054179706 0.012952745
-0.08100744 -0.014416158 -0.057507705 -0.06651556

val_conv1.weight f4 [2, 128, 1, 1]
00000000: e865 743c 4414 84bd ee3b 54bd 8019 f3ba
00000010: 59e8 8c3d 8224 85bd 3c95 8e3c a0dd 393c
00000020: a865 fbbc 4302 29bd e40f 76bd 1aa6 2a3d
00000030: 0637 303d 8a71 8dbd 5f06 27bd ae51 533d
00000040: 3002 59bc efc1 2bbd 6275 2abd 9484 a0bd
00000050: 000a 4b3c 72a4 11bd d211 183d 5d5a a93d
00000060: 9867 61bc 1864 b3bc f2f2 8fbd 2e96 753d
00000070: eaa0 1e3d b395 26bd 302f 8ebb 8061 b53b
00000080: e0b2 b8bb 90d0 53bc 1265 83bd b416 9e3c
00000090: 496c a73d ca2e a3bd 00c5 feb9 4400 ec3c
000000a0: 6a73 153d c680 593d e87d d03c f693 4b3d
000000b0: 3044 d33c 422b 773d 50b5 b4bb 4681 743d
000000c0: 506c c63c 59c1 a03d 8e45 49bd 0928 12bd
000000d0: 32e0 7d3d 4053 48bd 8888 5ebd 6813 b1bd
000000e0: ffb4 833d 42ea 353d 9967 abbd 601a c0bc
000000f0: 68f3 e73c f705 ad3d 00b7 b23c c91a 8d3d
00000100: 2bbd 9b3d b231 5dbd caf8 653d 911b 9c3d
00000110: 0bc8 903d f866 40bd 88c6 a13c 321b 32bd
00000120: 65f2 15bd 411d a43d f607 9fbd cf7d 4ebd
00000130: 9069 d13b 208e 4f3c c940 8d3d 69c5 b23d
00000140: ee4f e2bc 2207 73bd 2c9d df3c 3342 ac3d
00000150: 4c91 2bbd 46d1 a7bd c041 d93b fc67 82bc
00000160: c0b2 efbb 848a d83c 0008 a0bb c6f7 133d
00000170: 61a1 933d 5e78 8bbd 9862 e0bc 08ea 44bc
00000180: 9046 573c d019 4b3c 2009 c2bc d85c 23bc
00000190: 9e19 8fbd 19b6 03bd f079 36bc e93b 853d
000001a0: a09d e7bb d175 25bd d73f 9f3d 281e 56bd
000001b0: 003b e6b9 46c4 adbd 4760 8cbd 0ba8 a0bd
000001c0: f6f5 2b3d 104e a13c c6e9 95bd 59b7 86bd
000001d0: a01e 7b3c 144c a8bc c70a ad3d c4fa 033d
000001e0: 3e95 aabd 80cc bfba 20d7 033b 131d 983d
000001f0: d6ef 80bd 00df 84bb 2b88 843d 9e9d 503d
00000200: 38c9 afbc a5c6 953d a80a 8ebc 1076 a1bc
00000210: a612 87bd d47c 093d 28c7 e03c d0f5 d5bc
00000220: b88b 053d 00dc 3d39 9b12 ad3d 6811 88bd
00000230: 209f 8d3c b0e2 eabb cdc9 853d c0f8 153c
00000240: cfdd 66bd 986c d93c c831 e13c 678a 903d
00000250: 2132 af3d 5a08 703d facd 623d 4a22 493d
00000260: 48e0 84bc 7ab8 8bbd eccd b9bc 9c96 c23c
00000270: d021 043c 648d fabc a45c b7bc 05b6 8dbd
00000280: 7422 36bd 73d2 863d adaf 2abd f565 933d
00000290: 66c8 333d f5fa 9c3d ad70 a63d 58c6 72bd
000002a0: 0cd1 87bd 9a19 2d3d 201b 1abc 7aa0 783d
000002b0: 56b5 adbd e007 b73c 0170 19bd 2f6e 8c3d
000002c0: bb1d adbd 5336 03bd 60ac f5bc 4b96 5fbd
000002d0: 88ce 52bd d05b 0f3d 9512 873d 5d21 8d3d
000002e0: 57b7 b2bd 108e 40bc 3c1a 88bd 9699 523d
000002f0: 3e4c 033d baed 473d e011 bd3b 15be 2cbd
00000300: cdfe 61bd 966b 5ebd c40c edbc 6e1d dfbc
00000310: 53e3 a63d 0448 f43c f9e2 0abd a451 58bd
00000320: 39f0 9e3d ac31 9ebd 2687 203d 9afa 78bd
00000330: c04f 0c3d e5be b3bd a276 3b3d 1abd 393d
00000340: e6c0 253d 5053 c5bc 578c b13d 1ca1 48bd
00000350: 753d 12bd 2a55 f8bc 273f afbd 3b1a 35bd
00000360: 8101 24bd 1324 82bd b4b2 f3bc 7ed9 623d
00000370: d953 0fbd 00f5 f5ba e844 013c 81fd 80bd
00000380: 54ab 883c be6b 9abd 047a 8dbd 8278 f6bc
00000390: 70d6 57bc 46f4 383d d535 15bd 7bee 86bd
000003a0: c460 d23c 1299 593d c834 6fbd f604 9cbd
000003b0: 8689 313d 076d a0bd 8e1a 283d 13a1 8b3d
000003c0: e87d 1b3c be62 02bd c47f acbc 7ed2 d7bc
000003d0: 6ac6 6dbd 20aa 74bb 9514 923d d075 8cbb
000003e0: 6fdb 0dbd 16c4 1b3d e890 79bd 02b8 303d
000003f0: 7817 ac3c 475b 71bd 38ee 5fbd 621a 6ebd
0.0149168745 -0.06449178 -0.051814966 -0.0018547028 0.06880254 -0.06501104 0.017405145 0.011344343
-0.030688122 -0.041261923 -0.06007375 0.041662313 0.043021224 -0.069064215 -0.04077756 0.051591568
-0.01324515 -0.041932996 -0.04161585 -0.07837787 0.012392521 -0.035557218 0.03712637 0.082691886
-0.013757609 -0.021898314 -0.0702876 0.059957676 0.03872768 -0.040670108 -0.0043391213 0.0055353045
-0.005636558 -0.012928143 -0.06415762 0.019297935 0.08174951 -0.07967909 -0.00048593432 0.02880872
0.03648702 0.053101324 0.025450662 0.049701653 0.02578935 0.06034399 -0.005514778 0.059693597
0.02422157 0.07849378 -0.0491386 -0.03568271 0.061981387 -0.04890752 -0.054329425 -0.086462796
0.06431007 0.04441286 -0.08369369 -0.023450077 0.028314307 0.08448403 0.021815777 0.068898745
0.0760444 -0.05400247 0.056145467 0.076224454 0.07069405 -0.0469732 0.019747987 -0.043482967
-0.03660812 0.08013392 -0.0776519 -0.05041295 0.006390758 0.012668163 0.068971224 0.08729059
-0.027626004 -0.059332974 0.027296625 0.08411064 -0.041886613 -0.081942126 0.0066301525 -0.015918724
-0.00731501 0.026433237 -0.004883766 0.036124967 0.07208515 -0.068100676 -0.027390763 -0.012018688
0.013139382 0.012396291 -0.023685992 -0.009970866 -0.06987308 -0.032156084 -0.011137471 0.065055676
-0.007068351 -0.04039556 0.07775848 -0.052274853 -0.00043912977 -0.08484702 -0.06854301 -0.07844552
0.041982614 0.019690543 -0.07319979 -0.065779395 0.015327126 -0.02054409 0.08449321 0.03222157
-0.08329247 -0.0014633089 0.0020117238 0.074274205 -0.06295745 -0.004054904 0.064712845 0.050931565
-0.021458253 0.07313279 -0.017339066 -0.019709617 -0.06595354 0.03356631 0.027438715 -0.02611819
0.03260395 0.00018106401 0.08450814 -0.06643945 0.01728779 -0.0071681365 0.06532631 0.009153545
-0.056363877 0.02654104 0.027489558 0.07057648 0.08554483 0.058601715 0.055372216 0.049104966
-0.016220227 -0.068222955 -0.022681199 0.023753457 0.008064702 -0.030584998 -0.022383042 -0.06919483
-0.04446645 0.06583109 -0.041671444 0.07197181 0.043892287 0.07665054 0.0812696 -0.059271187
-0.066316694 0.042260744 -0.009405881 0.060699917 -0.08481853 0.022342622 -0.03746033 0.06856953
-0.08452936 -0.03203423 -0.029989421 -0.05458669 -0.051466495 0.03499967 0.06595341 0.06891129
-0.087263756 -0.01175262 -0.06645629 0.051416002 0.032055132 0.048810698 0.005769953 -0.042173464
-0.055174638 -0.05430182 -0.028936751 -0.027235713 0.081488274 0.029819496 -0.033907864 -0.052812234
0.077606626 -0.07724318 0.039191388 -0.060785867 0.034255743 -0.087766446 0.045767434 0.045346357
0.040467165 -0.024087578 0.08669346 -0.04898177 -0.03570314 -0.030314047 -0.08556967 -0.04421447
-0.040040497 -0.06354537 -0.029748298 0.055383198 -0.034992073 -0.0018765032 0.007889964 -0.06298352
0.016683258 -0.075400814 -0.06908038 -0.03008676 -0.0131736845 0.045154832 -0.03642829 -0.06588455
0.025680907 0.053124495 -0.058399945 -0.07618134 0.043344043 -0.07833295 0.04104095 0.06817832
0.009490468 -0.03183245 -0.021057017 -0.026345488 -0.05805055 -0.0037332848 0.07132832 -0.0042865053
-0.034633096 0.0380288 -0.06092921 0.043144234 0.021007285 -0.05892494 -0.054670542 -0.05813063

val_conv1.bias f4 [2]
00000000: 4209 76bd 6938 923d
-0.060067423 0.07139666
